trained_models2/autoencoder_paper_lr0.1.pt (torch, 16512 bytes, 8 tensors)

encoder.0.weight f4 [16, 3, 3, 3]
000000 64 36 3d bf 64 c7 b9 be 05 4b 34 bf 8f 04 f3 be
       -0.7391112 -0.36284935 -0.7042697 -0.47464415
000010 57 77 0d bf 69 5b 0e bf e5 34 0b bf 66 52 23 bf
       -0.55260223 -0.5560823 -0.54377586 -0.63797605
000020 dd 4f 1c bf 19 65 09 bf 99 ba 0f bf 19 44 de be
       -0.6105936 -0.5366989 -0.561441 -0.4341133
000030 ab ed 0c bf e8 ef a2 be 63 74 f2 be 5e 80 08 bf
       -0.5505015 -0.3182366 -0.4735442 -0.5332087
000040 1e 5a ce be f9 0a 9e be 82 27 c0 be df 92 e2 be
       -0.4030313 -0.30867746 -0.37530142 -0.4425268
000050 e0 ce f0 be 0b 9f c9 be 4c 17 2b bf 72 72 b0 be
       -0.47032833 -0.39379153 -0.66832423 -0.34462315
000060 2c 3c 17 bf 4a f4 b6 be 14 fb 19 bf 7d 09 15 bf
       -0.5907619 -0.35733253 -0.6014874 -0.582176
000070 f2 f5 10 bf 95 d5 30 bf 75 be 3f bf a0 b4 1d bf
       -0.5662528 -0.690759 -0.7489999 -0.61603737
000080 de da 07 bf d2 59 f9 be d1 40 ff be 7b be 0a bf
       -0.5306834 -0.4870134 -0.49854138 -0.541969
000090 5a a8 44 bf 0f e2 e8 be fe f2 3e bf 64 b9 ea be
       -0.76819384 -0.4548497 -0.74589527 -0.45844567
0000a0 3e 84 27 bf 31 fe 30 bf 30 2a 0d bf 91 4d 02 bf
       -0.6543616 -0.69137865 -0.551425 -0.50899607
0000b0 6e af 48 bf ee fc cb be a5 fd 00 bf 82 22 01 bf
       -0.78392684 -0.39841408 -0.5038703 -0.5044328
0000c0 5a b0 0c bf 6e e7 0a bf 33 56 2c bf 1c f9 16 bf
       -0.5495659 -0.54259384 -0.6731903 -0.5897386
0000d0 34 ed 12 bf 35 68 fe be a5 71 66 bf 70 a7 39 bf
       -0.57393193 -0.4968888 -0.9001716 -0.72521114
0000e0 50 89 44 bf 36 be 09 bf 16 c6 16 bf 85 0f 89 be
       -0.7677202 -0.53805864 -0.58896005 -0.26769653
0000f0 f4 d7 0a bf d8 90 4b bf 72 76 83 be e5 fa 3c bf
       -0.5423577 -0.7951789 -0.25676304 -0.73820335
000100 d6 ca 5a bf 87 85 40 bf df 27 0d bf b2 56 82 be
       -0.85465753 -0.75203747 -0.55138963 -0.25456768
000110 6b af 33 be e9 86 2a bf 5f ee e7 be 73 7e b7 be
       -0.17547385 -0.66612107 -0.4529905 -0.3583866
000120 2d 80 07 bf 46 da 54 bf 5c 0a 36 bf 9b cf 4d bf
       -0.52929956 -0.8314556 -0.7110956 -0.80394906
000130 0b 90 e3 be f7 27 1e 3c e4 fd 5a bf 96 10 1e bf
       -0.44445834 0.009653083 -0.85543656 -0.6174406
000140 51 a6 53 be bc 1d 9f be 63 b1 02 bf bd a5 17 bf
       -0.20668913 -0.31077373 -0.5105192 -0.5923727
000150 68 69 44 bf 71 7a 42 bf e1 9c 34 bf 7f 58 38 bf
       -0.7672334 -0.7596808 -0.7055188 -0.72010034
000160 db d1 09 bf 24 c6 2b bf 59 42 96 be e3 0f 12 bf
       -0.5383584 -0.67099214 -0.29347494 -0.5705549
000170 5d a6 d6 be 1e 7f 28 bf 44 ce 11 bf ff bd 4c bf
       -0.419238 -0.65818965 -0.5695536 -0.7997741
000180 d3 1a 30 bf 60 44 13 bf 9f 83 2b bf 6a 85 be be
       -0.6879093 -0.57526207 -0.6699771 -0.37211162
000190 88 34 dc be 97 ac 34 bf 0c 15 4d bf 7d 9c 0c bf
       -0.43008828 -0.7057585 -0.8011024 -0.5492628
0001a0 b6 48 23 bf 18 83 53 bf 31 15 20 bf ea 52 2e bf
       -0.63782823 -0.8262191 -0.62532336 -0.68095267
0001b0 ac 24 2a bf ca 86 f1 be ab 00 ad be 55 a6 21 bf
       -0.66462207 -0.47173148 -0.33789572 -0.6314443
0001c0 aa 09 1e bf 64 8c 12 bf f1 f5 30 bf f7 16 0f bf
       -0.61733496 -0.5724547 -0.69125277 -0.55894417
0001d0 a7 6a ba be 54 2e 2f bf ec 5d 0f bf 2f a1 19 bf
       -0.36409494 -0.68430066 -0.5600269 -0.6001157
0001e0 45 97 07 bf 33 78 bf be da 22 32 bf dd 2e 0b bf
       -0.52965194 -0.37396392 -0.6958443 -0.5436838
0001f0 a1 e8 fa be d6 62 08 bf 77 78 2c bf 7e 04 20 bf
       -0.49005607 -0.5327581 -0.67371315 -0.62506855
000200 a3 35 37 bf 19 af 2d bf d4 8e 16 bf 21 4a 25 bf
       -0.7156622 -0.678453 -0.5881169 -0.64566237
000210 63 37 25 bf f7 aa c9 be 13 9f e3 be e1 06 28 bf
       -0.6453764 -0.39388248 -0.44457301 -0.65635496
000220 8a 79 45 bf dd cf 00 bf 03 cf f5 be 3d 47 0c bf
       -0.7713858 -0.50317174 -0.480095 -0.547962
000230 b8 98 3b bf d6 25 2e bf 97 cd 3e bf af 96 28 bf
       -0.73279905 -0.68026483 -0.74532455 -0.65854925
000240 f7 65 27 bf 26 95 d1 be 40 48 51 bf 8f a5 1c bf
       -0.6538996 -0.40934104 -0.8175087 -0.6119012
000250 9c 35 19 bf 40 c9 01 bf 77 93 b6 be c7 c3 1e bf
       -0.59847426 -0.5069771 -0.35659382 -0.6201748
000260 c0 18 15 bf a6 c3 c3 be ad bc 0b bf d5 54 19 bf
       -0.5824089 -0.38235205 -0.5458477 -0.5989507
000270 00 e4 1e bf 6d cd 1f bf e2 e9 53 bf d5 27 0f bf
       -0.6206665 -0.6242283 -0.8277875 -0.55920154
000280 d8 d5 c6 be 06 90 38 bf cc f7 1d be cd a8 0b bc
       -0.38835025 -0.7209476 -0.15426558 -0.008524132
000290 0e b7 60 be 38 b8 5f bd e5 a5 98 be 97 8e 1c be
       -0.2194483 -0.054619044 -0.29814067 -0.15288769
0002a0 4a c9 b4 be 63 e7 79 bd d3 b6 86 be c3 da 8e bc
       -0.3530982 -0.061011683 -0.2631136 -0.017438298
0002b0 9a b5 af bd 7c 52 21 be f8 12 09 bd 00 54 33 be
       -0.085795596 -0.15754122 -0.033465356 -0.17512512
0002c0 7c 03 c2 be 46 ab 4a be ca 4a c3 bd fc c1 9a be
       -0.37893283 -0.19791898 -0.09535749 -0.30226123
0002d0 c4 a9 38 be e7 c2 5d 3d a5 37 69 be 8f 79 f3 bd
       -0.1803351 0.05414095 -0.22775133 -0.1188842
0002e0 d8 0e 0c 3c a0 d1 0f be 09 36 66 3d e9 1f 39 bd
       0.008548461 -0.1404481 0.056203876 -0.045196448
0002f0 58 33 84 be 7f 27 20 bf 8f f3 05 be f9 38 e0 3d
       -0.25820422 -0.62560266 -0.13081191 0.10948367
000300 90 83 40 bf d3 85 86 be 22 88 41 be 7e 77 1a bf
       -0.7520075 -0.26273975 -0.18899587 -0.6033858
000310 d2 c2 a9 be 58 bf 01 3e 90 c4 01 bf d7 26 83 be
       -0.3315645 0.12670648 -0.50690556 -0.2561557
000320 be 44 c6 3c 87 17 35 bf 5e 31 dc be 6e 0d 6e bd
       0.0242027 -0.70739025 -0.43006414 -0.058118276
000330 54 21 15 bf 1c b0 c6 be 42 c0 b1 bd 42 0a fe be
       -0.5825398 -0.38806236 -0.086792484 -0.496172
000340 7a b8 86 be ae c5 46 be c3 99 46 bf e1 f4 c6 be
       -0.2631262 -0.19411346 -0.7757837 -0.38858703
000350 d3 76 20 bd 1f 90 32 bf f5 d9 24 be bd 6b 28 3e
       -0.03917582 -0.6975116 -0.16098769 0.16447349
000360 53 23 dc be 85 81 dc be 37 e5 1f bf 7e 15 d2 be
       -0.429957 -0.43067566 -0.6245913 -0.41032022
000370 0a 76 2a bf c7 0a 24 bf c8 7e 36 bf 1e 25 38 bf
       -0.66586363 -0.64078945 -0.712872 -0.71931636
000380 48 e6 cd be aa 2f d3 be ee 6e d5 be 56 e4 1c bf
       -0.40214753 -0.41247302 -0.41686195 -0.61285913
000390 71 40 10 bf ec 90 11 bf 68 d2 1f bf 8b 5a 2c bf
       -0.5634833 -0.5686176 -0.6243043 -0.6732566
0003a0 13 00 28 bf 14 07 39 bf f6 54 c3 be c7 04 e3 be
       -0.65625113 -0.72276425 -0.38150758 -0.44339582
0003b0 0c d9 39 bf 35 e2 21 bf 3d 56 ce be ac 0f 1b bf
       -0.7259681 -0.6323579 -0.4030017 -0.6057079
0003c0 1a c2 fb be 5c 31 0e bf 7a 99 00 bf ad cc fc be
       -0.49171525 -0.55544066 -0.50234187 -0.49374905
0003d0 5b d3 3a bf 32 6b 34 bf 78 c9 09 bf 5e 16 f5 be
       -0.7297875 -0.7047607 -0.5382304 -0.47868627
0003e0 68 27 37 bf a2 14 e5 be e4 4b be be e6 d8 10 bf
       -0.71544504 -0.44742304 -0.37167275 -0.5658096
0003f0 11 09 03 bf b7 ca 00 bf a0 91 de be 63 f4 1d bf
       -0.5118571 -0.5030932 -0.43470478 -0.6170103

encoder.0.bias f4 [16]
000000 44 81 1d bf b7 b6 17 bf ce 6c 0a bf 0c c9 31 bf
       -0.6152537 -0.59263176 -0.5407227 -0.694474
000010 b9 c3 3a bf 04 7e 36 bf 28 25 ae be f9 a7 75 bf
       -0.729549 -0.71286035 -0.34012723 -0.9595943
000020 8f 05 36 bf a5 f2 1a bf a7 83 04 bf 27 9c 36 be
       -0.7110223 -0.60526496 -0.51763386 -0.17833005
000030 88 5b be be 82 ff 84 bf f2 f1 28 bf cc bb 07 c0
       -0.37179208 -1.0390475 -0.6599418 -2.1208372

encoder.2.weight f4 [8, 16, 3, 3]
000000 45 cf 9d 3e fd 47 d2 3e df a0 03 3f 0f f1 93 3e
       0.30822197 0.41070548 0.51417345 0.2889485
000010 c4 01 d7 3e 3c 60 e6 3e 6f 55 83 3e 57 bc e1 3e
       0.41993535 0.44995296 0.25651118 0.44089004
000020 61 3d ca 3e 7a 34 3e 3e 40 60 be 3e cb d0 05 3f
       0.39499953 0.18574706 0.37182808 0.5227172
000030 cc 37 76 3e e6 9d dd 3e 01 38 f2 3e 43 19 4b 3e
       0.24044722 0.4328453 0.47308353 0.19833855
000040 a2 2c c2 3e 27 76 02 3f 0d 31 ed be d8 d7 13 bf
       0.37924677 0.50961536 -0.46326485 -0.57751226
000050 84 ca 1c bf 25 e0 08 bf 26 37 3d bf 66 12 48 bf
       -0.61246514 -0.5346702 -0.73912275 -0.78153074
000060 82 4c d6 be 26 b2 d5 be e5 ff 2f bf a1 0b 0d 3f
       -0.41855246 -0.4173748 -0.6874984 0.5509587
000070 15 7f 1d 3f e6 8e 19 3f 23 cb 25 3f 73 b3 08 3f
       0.61522037 0.5998367 0.6476309 0.5339882
000080 a3 50 12 3f 18 44 1e 3f d3 0b 0d 3f 12 de 14 3f
       0.5715429 0.6182265 0.5509617 0.5815135
000090 e5 2c 08 3f b5 60 07 3f fb 44 d7 3e 5c 5e 04 3f
       0.53193504 0.5288194 0.42044815 0.5170648
0000a0 44 e4 0f 3f a3 8d d5 3e 8a ca d2 3e c6 0a 00 3f
       0.5620768 0.41709623 0.4117015 0.5001644
0000b0 da 34 e8 3e e4 19 96 be d2 b1 80 be f1 82 1a be
       0.45352823 -0.29316628 -0.25135666 -0.15089013
0000c0 28 30 ae be 9b fa 59 be a6 4e 67 be 21 4b ad be
       -0.34021115 -0.21287005 -0.22588596 -0.3384638
0000d0 c4 67 5e be cc e7 f6 bd c0 f8 ed 3d 4b 42 e2 3c
       -0.21719271 -0.120559305 0.11619711 0.027619502
0000e0 81 d6 ec 3d f6 99 43 bc 59 3a 02 bd 40 40 66 bd
       0.11564351 -0.011938563 -0.031793926 -0.056213617
0000f0 16 0a c8 3a 83 c6 1e bd e1 ee 48 3e bb e4 22 be
       0.0015261795 -0.038763534 0.19622375 -0.15907566
000100 8c 30 65 3d b7 99 0c be 71 0e 7a be 92 49 36 3d
       0.0559545 -0.13730513 -0.24419571 0.044503756
000110 40 9a 01 be ed 6e c3 be 02 9f ce bd 77 7b 67 be
       -0.12656498 -0.38170567 -0.10088922 -0.22605692
000120 29 c1 fb be e5 4a db be 54 31 0f 3f bc 61 db be
       -0.49170807 -0.42830577 0.55934644 -0.42848003
000130 bd 19 0a bf e3 b8 26 3f 88 5a e0 be a6 a8 13 bf
       -0.53945524 0.65125865 -0.4381907 -0.5767921
000140 5b 2d e4 3e 5f b5 d4 be 26 bb fd be 6e 6e 20 bf
       0.44565853 -0.41544625 -0.49556845 -0.626685
000150 2d 09 a7 be 22 87 fc be 60 dc 1e bf 84 b9 c7 be
       -0.32624188 -0.49321848 -0.62055016 -0.39008725
000160 2f 69 04 bf 06 f3 15 bf 77 36 ae be 42 e3 d8 be
       -0.51723 -0.5857395 -0.34025928 -0.42360884
000170 38 14 cc be af 02 ca be 44 f4 8d be 2a 7e c2 be
       -0.39859176 -0.39455172 -0.27725422 -0.3798688
000180 89 6b 90 be 36 5d d2 be ec c2 96 be 50 b5 90 3c
       -0.28207043 -0.4108674 -0.2944559 0.017664582
000190 06 92 47 bd f8 2d 15 3d 60 31 1c 3c 8e 18 4f bd
       -0.048723243 0.036420792 0.009533256 -0.050560527
0001a0 00 c6 ff 3c 00 5e 26 3c b0 9f 3b 3d b6 7c e8 bc
       0.031222343 0.010154247 0.045806587 -0.02837978
0001b0 d8 bf 33 3e 6a 94 0e bf a6 4e 3d 3e 42 23 4e be
       0.17553651 -0.5569521 0.18487033 -0.20130637
0001c0 fc e4 9f bf e2 1a b3 be 71 d8 00 3f 8f c1 ca be
       -1.2491755 -0.34981447 0.50330263 -0.39600798
0001d0 c2 e3 3a 3e 52 07 7c bd 21 b0 8f be 0f ad 32 be
       0.18250945 -0.06153042 -0.28064063 -0.17448829
0001e0 1f 7e 9b be c5 3f a4 be b7 32 cf be ec 3f b4 be
       -0.3036966 -0.32079902 -0.4046838 -0.3520502
0001f0 f1 45 be be 9a 51 14 bf 87 f2 07 3e 1f 9c 9c 3d
       -0.37162736 -0.57937014 0.1327611 0.07646965
000200 0c 94 a7 3b 40 66 b4 3e b6 4f 56 3d 34 e9 c3 be
       0.005114084 0.3523426 0.052322112 -0.38263857
000210 31 8c 1f 3d 2e e9 7d bd e0 1c bc bd 22 0d 53 bd
       0.038952056 -0.061989956 -0.09185195 -0.051526196
000220 a3 94 d7 be 6a 3e c7 3e e0 6a 5a be 27 56 2c bf
       -0.42105588 0.38914806 -0.21329832 -0.6731896
000230 6a d3 b9 bd 85 6e 73 be 1b f6 1f bf ad 88 88 bd
       -0.09073527 -0.23772629 -0.624849 -0.06666694
000240 be 6e 1d 3f de a9 17 3f 36 ca 20 3f d2 b2 21 3f
       0.61497104 0.5924357 0.6280855 0.63163483
000250 2a 8f 17 3f ef d9 20 3f 66 f0 28 3f a4 f6 2b 3f
       0.59202826 0.6283254 0.6599182 0.6717322
000260 2d 6a 3b 3f 34 8e 34 3f 58 ab 2d 3f 93 aa 40 3f
       0.73208886 0.70529485 0.67839575 0.75260276
000270 be 1d 41 3f 81 e2 38 3f 2f 2c 4d 3f 83 13 30 3f
       0.7543601 0.7222062 0.80145544 0.6877977
000280 36 98 43 3f 56 b3 3b 3f 0a 74 1c bf e2 42 d0 be
       0.7640413 0.7332052 -0.6111456 -0.40676028
000290 41 25 01 bf 30 1e f0 be 71 37 fe be 21 84 01 bf
       -0.5044747 -0.4689803 -0.49651673 -0.5059224
0002a0 69 e9 22 bf 81 f9 0b bf 47 26 0a bf b2 63 39 bf
       -0.63637406 -0.5467759 -0.53964657 -0.7241775
0002b0 45 93 21 bf 4f 91 22 bf cb 2b 48 bf 11 a7 3a bf
       -0.6311534 -0.63502973 -0.7819182 -0.72911173
0002c0 98 27 25 bf ef 38 27 bf de 09 16 bf 13 65 1c bf
       -0.6451354 -0.6532125 -0.58608806 -0.61091727
0002d0 8c 39 1e bf 32 c2 2f bf 36 05 4e bf 50 bc 15 bf
       -0.6180656 -0.68655694 -0.804767 -0.5849047
0002e0 d5 7c 53 bf 26 02 38 bf e7 12 33 bf c1 22 28 bf
       -0.82612354 -0.7187828 -0.6995072 -0.6567803
0002f0 08 8b 51 bf 7f b6 a6 be b0 2a c5 be d5 6f 9e be
       -0.8185277 -0.32561108 -0.3850913 -0.30944696
000300 89 fa a4 be 61 95 ac be 0e 54 d3 be cc a7 a0 be
       -0.32222393 -0.33707717 -0.41275066 -0.3137802
000310 fb c7 a5 be 10 f3 91 be c5 7b 2c 3d f6 44 c0 bc
       -0.32379135 -0.28505754 0.042110223 -0.023470383
000320 65 63 a3 3c 5a b7 8c bd ec 87 22 bb b4 20 d8 bd
       0.019944856 -0.06870909 -0.0024800254 -0.105531126
000330 22 fe 9b 3d 82 6a 95 bd f6 be 83 3d 2f 42 05 bf
       0.07616831 -0.072957054 0.06432907 -0.52054113
000340 0f 3a e2 be bc 2d da be 16 fe f4 be e7 bd 14 bf
       -0.4418492 -0.42613018 -0.47850102 -0.5810227
000350 38 5a e6 be c3 8d ec be 62 61 01 bf 4e 20 f2 be
       -0.44990706 -0.46201906 -0.5053922 -0.47290272
000360 d8 5d 0c bf dc 84 15 bf a4 ce 0f 3f dc 6d 2a bf
       -0.54830694 -0.5840585 0.56174684 -0.6657388
000370 fd 15 f2 be 70 3a 1e 3f 2f 61 07 bf 6c ad ec be
       -0.472824 0.6180792 -0.52882665 -0.4622606
000380 07 e0 26 3f 2c 6d 28 bf 9f 41 02 bf ec f0 02 bf
       0.6518559 -0.65791583 -0.5088138 -0.5114887
000390 7d c9 03 bf 70 e3 0c bf 78 06 03 bf eb 3d 1a bf
       -0.5147932 -0.5503454 -0.51181746 -0.6025073
0003a0 35 ff 21 bf 70 0f 15 bf 53 0d 18 bf 77 93 26 bf
       -0.6328004 -0.5822668 -0.5939533 -0.65068763
0003b0 c8 65 2a bf e8 07 37 bf f1 a6 1e bf bd 96 2b bf
       -0.66561556 -0.7149644 -0.6197348 -0.67026883
0003c0 8c 8f 13 bf dc 9e 21 bf f4 d9 35 bf fb 4b e5 bc
       -0.5764091 -0.63133025 -0.71035695 -0.027990332
0003d0 50 ab 93 bd ab fd 59 bb 7c 5c 9e bd 43 75 1a bd
       -0.0721041 -0.003326277 -0.07732484 -0.037709486
0003e0 a8 f7 02 bd 4e 7c 01 bd 56 b2 2f 3b a0 8d 79 3c
       -0.031974465 -0.031612687 0.0026809177 0.01523152
0003f0 2c 3f 22 3e 3d 9e a2 bf 87 47 a4 bf e2 d8 f8 bb
       0.1584441 -1.270454 -1.2834328 -0.007594214

encoder.2.bias f4 [8]
000000 45 af 84 40 3a 08 54 3f 4b d7 8e 3f e8 4c 17 be
       4.146395 0.8282505 1.1159452 -0.14775431
000010 7f 98 17 40 7b 6a 66 3f cf e2 e6 3f 96 af 7c be
       2.3686826 0.90006226 1.8037966 -0.24676356

decoder.0.weight f4 [8, 16, 3, 3]
000000 56 66 4e 3c 98 d1 11 bf ab 2e 68 ba eb 08 e6 3b
       0.012597641 -0.5696044 -0.0008857052 0.007020106
000010 db 92 1d 3d 46 cf af 3c b8 e8 99 bd fe be 23 bf
       0.03847013 0.02146114 -0.07515091 -0.63963306
000020 48 23 1d bd 05 79 6a bf 13 28 71 bf e6 ce fb bd
       -0.038363725 -0.9159091 -0.94201773 -0.12295322
000030 36 12 8d bf 21 38 a6 c0 7a ed df bd df 4d 62 bd
       -1.1021183 -5.1943517 -0.10933967 -0.055250045
000040 e1 df dc be c3 df 35 bd 29 cc 11 bf ab f2 89 ba
       -0.43139556 -0.04440285 -0.5695215 -0.0010524591
000050 b5 9c 07 bf ee 2a 08 bd 63 11 21 bf 86 00 44 bd
       -0.5297349 -0.033244066 -0.62917155 -0.04785206
000060 e8 fa da be 2c 98 16 bf 79 a5 cf be 3d d6 4e bf
       -0.4276955 -0.58825946 -0.40555933 -0.8079565
000070 af 61 74 3f d0 36 33 bf 56 20 b9 3f cb 1a f7 be
       0.95461553 -0.7000551 1.4462993 -0.4826263
000080 c7 b7 56 3f ac 25 29 bf 4d 37 ad 3f 32 f4 48 bd
       0.8387417 -0.6607311 1.3532501 -0.049061008
000090 de 6f 1d bf a7 3b f3 be 8a 3c 1e bf bb e4 fa be
       -0.6149882 -0.4750645 -0.61811125 -0.49002632
0000a0 6d 7c cf be b0 62 db be aa 72 20 bf 88 4d e9 be
       -0.40524617 -0.4284873 -0.62674963 -0.45566964
0000b0 0f 25 0f bf 52 bf b9 be 8d 71 18 bf d0 11 c7 be
       -0.5591592 -0.36278778 -0.59548265 -0.38880777
0000c0 ae 31 9f be 9b e2 21 bf 77 b1 9b be 70 ff cc be
       -0.3109259 -0.632364 -0.30408832 -0.40038633
0000d0 06 11 27 bf 1f 33 e2 be 45 9e 09 c0 c8 8a 3b c0
       -0.6526035 -0.44179627 -2.150285 -2.9303455
0000e0 cf ab 98 bf cd 2a 04 c0 ef 7a ae bf fd ea 44 c0
       -1.1927432 -2.0651124 -1.3631266 -3.0768425
0000f0 0b d7 38 c0 c9 33 41 c0 f9 a8 0c c0 82 7a 22 bf
       -2.8881252 -3.0187857 -2.1978133 -0.6346818
000100 00 44 ff 3b 70 fe 22 bf ef a0 11 bf d0 54 05 bf
       0.0077900887 -0.6366949 -0.5688619 -0.5208254
000110 a9 57 1f bf b2 2e 08 bf a4 97 1e bf 33 27 29 bf
       -0.62243134 -0.5319625 -0.61950135 -0.6607544
000120 7f 9a 8b bf a5 0b d8 be 48 0e 9a bf 1b 10 ba be
       -1.0906523 -0.42196384 -1.2035608 -0.36340412
000130 00 a3 bd be 1e c2 0d bf e7 24 41 be e7 ba cc be
       -0.37038422 -0.55374324 -0.18861733 -0.39986345
000140 06 2b 97 bf 02 1a a4 3d a0 83 24 3c 6e 56 30 bd
       -1.1810005 0.08012773 0.0100411475 -0.043051176
000150 5e 82 1b bf 19 d7 29 bf 85 1d 24 bf 46 12 5e 3d
       -0.607458 -0.6634384 -0.64107543 0.054216646
000160 fb 99 67 bd fe 6a 93 bd 0e b4 3a 3d 86 cb 80 bd
       -0.05654333 -0.071981415 0.04558187 -0.06288819
000170 1e 55 7e bd 66 dc 92 3d 57 29 09 bf 23 bf 57 bd
       -0.062092893 0.07170944 -0.53578705 -0.052672517
000180 a2 90 a5 3d 2e 46 79 3d 78 1f 6c bd 56 1a c6 be
       0.08084227 0.060857944 -0.0576472 -0.38691968
000190 62 80 cf bd d6 6c f5 be 63 78 fc be e0 0a 0a bf
       -0.10131909 -0.47934598 -0.49310598 -0.53922844
0001a0 17 66 14 bf bb 0e d2 be 43 87 c0 bd 21 45 e0 be
       -0.57968277 -0.41026863 -0.09400799 -0.4380274
0001b0 21 38 0a bf ab 47 eb be 73 b2 19 bf 69 2a 0d bf
       -0.53991896 -0.45953116 -0.60037917 -0.5514284
0001c0 50 fa 0b bf 53 6a 0b bf f6 df dd be 7d dc 09 bf
       -0.5467882 -0.5445911 -0.4333493 -0.53852063
0001d0 00 e8 fd be 22 2b 3b bf 48 7e 09 bf 07 b6 bf be
       -0.49591064 -0.7311269 -0.53708315 -0.37443563
0001e0 e6 ca 20 bf f5 0a 0c bf c7 4a 10 bf f2 dc 18 bf
       -0.628096 -0.5470422 -0.563641 -0.59712136
0001f0 0a bb 15 bf 5e 6b c6 be f7 d8 75 3f 16 0d 6d 3d
       -0.58488524 -0.3875379 0.9603419 0.057873808
000200 4b c0 31 3c cd 73 01 bf fd 5c 28 40 d8 34 56 be
       0.010849069 -0.5056732 2.6306756 -0.20918596
000210 ea 66 67 3f d5 08 ea 3e 23 d1 c0 3e 5b 93 41 bd
       0.9039141 0.45709863 0.3765956 -0.04725967
000220 4b db 6d 3d 6e 92 7a bd 0b 91 a6 bc fa f9 05 bf
       0.058070462 -0.061174802 -0.020332834 -0.5233456
000230 72 fd 81 bd 56 c4 59 3c 34 46 98 3d 64 56 97 bd
       -0.06347169 0.013291439 0.07435265 -0.073895246
000240 17 70 89 3d b6 e8 13 bf 50 f4 64 3d 80 6a d4 bb
       0.067108326 -0.57776964 0.055897057 -0.0064824224
000250 b6 0e 62 3d 40 d6 a8 3c 4e fd 17 bd 4a f0 1a bf
       0.05518981 0.020609975 -0.037106805 -0.605229
000260 60 3b 03 bc f3 70 5e bf 9f 5d 0b bf 6d d0 ad bf
       -0.008009762 -0.86891097 -0.5443973 -1.3579232
000270 11 b0 cb 3e cb 81 39 bf 7d 08 2c bf c8 07 7f bf
       0.39782766 -0.72463673 -0.6720045 -0.9962125
000280 3e d7 06 bf 46 7d d0 bf 5a 3b 05 bf 0b 29 31 bc
       -0.52672184 -1.628823 -0.5204369 -0.010813008
000290 74 1a 23 bf e0 6f f4 3c 79 51 fe be e0 46 80 bd
       -0.6371224 0.029838502 -0.49671534 -0.06263518
0002a0 a8 4e 0c bf c6 aa 1f bf d0 0d e2 be 94 20 19 3e
       -0.5480752 -0.62369955 -0.44151163 0.14953834
0002b0 3f a6 6b 3f 9a ca 52 3e e0 df ce 3f 74 44 8c 3d
       0.92050546 0.20585099 1.6162071 0.06848994
0002c0 3e b2 9c 3f e8 17 ca 3e 95 73 bd 3f ea 59 76 3f
       1.2241895 0.39471364 1.4800898 0.9623095
0002d0 ae 9c 1d bf 50 22 04 bf 79 fe 13 bf af 42 ff be
       -0.615672 -0.51614857 -0.5781017 -0.49855563
0002e0 c4 50 0e bf 79 ef 23 bf d4 7e fe be 6f 14 12 bf
       -0.5559199 -0.6403728 -0.49706137 -0.5706243
0002f0 19 0f 20 bf 3a 98 b0 be 61 d3 fa be 2a f7 c6 be
       -0.6252304 -0.3449114 -0.48989394 -0.38860446
000300 d3 26 dc be 4c 91 f6 be f8 6a c5 be da 4c da be
       -0.4299837 -0.48157728 -0.38558173 -0.42636758
000310 42 0e ec be 17 f5 af be e1 57 8f be 36 23 67 bf
       -0.46104628 -0.34366676 -0.27996734 -0.902881
000320 8d 68 88 be 31 ff c4 bf 68 51 03 c0 d9 1b db be
       -0.26642266 -1.5390378 -2.0518436 -0.42794684
000330 0e 03 0f be 35 bd 72 bf 28 62 da be 45 d7 05 bf
       -0.13966009 -0.94819957 -0.42653012 -0.522816
000340 6b a5 52 bd 4e f6 25 bf 09 11 22 bf 8e c8 14 3f
       -0.051427286 -0.64828956 -0.63307244 0.5811852
000350 ab 75 f7 be 1c 7b 0b bf 40 6a 09 bf 36 52 12 bf
       -0.4833196 -0.54484725 -0.5367775 -0.57156694
000360 3f 47 41 bd a0 6e e2 be fc a6 0f c0 3d 4a c4 be
       -0.047187086 -0.44225025 -2.244567 -0.3833789
000370 58 a7 fb be 2d b3 0f bf 71 76 30 3e bd b5 d8 be
       -0.4915111 -0.56132776 0.17232682 -0.42326155
000380 00 a8 13 c0 e6 b7 96 bd f8 cf 1d bd 8b 29 26 bc
       -2.307129 -0.073592946 -0.038528413 -0.010141741
000390 15 77 0c bf e1 f7 27 bf 79 85 08 bf 6b 42 ae 3b
       -0.54869205 -0.6561261 -0.53328663 0.005317976
0003a0 cb 9b 30 3c 7b 67 ac bc 4b c5 0a bc 80 5d 66 3c
       0.010779331 -0.021045437 -0.00846989 0.014060378
0003b0 2b 9e ff 3c e3 3e 40 bd 55 be 1c bf 80 3f 4b bd
       0.03120335 -0.046934973 -0.61227924 -0.049621105
0003c0 52 1b 97 bd 8b 82 2c bc fb 31 3b bd a6 22 fd be
       -0.07378258 -0.010529171 -0.045701962 -0.49440497
0003d0 7c 30 14 bf af a3 c3 be 3b bc 00 bf 2c 0f 08 bf
       -0.5788648 -0.38210818 -0.50287217 -0.5314815
0003e0 27 9c 18 bf a6 3e b1 be a6 79 93 be 4f 92 01 bf
       -0.5961327 -0.3461811 -0.28803748 -0.50613874
0003f0 48 7b 03 bf c3 56 1c bf 62 94 1a bf 50 1b 03 bf
       -0.5135999 -0.6106989 -0.60382664 -0.5121355

decoder.0.bias f4 [16]
000000 a8 3b 1f bf 6a 9b 3c 3f 50 80 0b bf 7b 5c a2 bf
       -0.62200403 0.73674643 -0.54492664 -1.2684473
000010 c4 18 a7 be 34 71 8c be b6 22 3b 3f 9c b4 44 bf
       -0.32636082 -0.27430117 0.7309984 -0.7683809
000020 bd 1e b6 bf 00 46 1c bf f4 4d 2d bf 69 3f ba bf
       -1.422813 -0.6104431 -0.6769707 -1.4550601
000030 8d d1 1d bf 74 a0 fb be 9e 96 79 bf 6b c3 27 bf
       -0.61647874 -0.49145854 -0.9749545 -0.6553256

decoder.2.weight f4 [16, 3, 3, 3]
000000 b2 89 1a 3f be 55 20 3f 81 02 1e 3f e3 9e fb 3e
       0.60366356 0.6263083 0.6172257 0.49144658
000010 69 73 08 3f 7c 92 ea 3e a5 6e f3 3e 3b 72 14 3f
       0.533011 0.45814884 0.47545353 0.579868
000020 4b b0 0a 3f 6d 16 34 3f 37 7a 00 3f 0d 19 18 3f
       0.5417525 0.7034672 0.50186485 0.59413224
000030 86 c4 16 3f 24 82 e4 3e 09 6e 46 3f 1e 02 44 3f
       0.5889362 0.4463054 0.7751165 0.7656573
000040 c5 d9 3e 3f 1b 10 d5 3e 94 0e f1 3e c3 74 26 3f
       0.7455104 0.4161385 0.47081435 0.65021914
000050 82 fd 42 3f c1 59 03 3f c4 d0 43 3f 10 0d 3c 3f
       0.7616807 0.5130883 0.76490426 0.7345743
000060 1e 8e 17 3f 42 f5 32 3f b6 7a 04 3f b2 45 47 3f
       0.5920123 0.69905484 0.5174974 0.7784072
000070 73 32 2f 3f 0e 23 4f be 58 bf 01 40 fc b4 b3 3f
       0.68436354 -0.20228216 2.0273037 1.4039607
000080 ce 61 94 be bb 27 94 3f 4c d9 8a 3f 55 85 a9 bd
       -0.2898087 1.1574625 1.0847564 -0.08277384
000090 fe c0 33 3f 9c b0 52 3f b9 71 1e be a4 c0 08 40
       0.7021636 0.82300735 -0.15473069 2.1367579
0000a0 4b 5d d2 3f 42 a2 d2 bd bc 8e 91 3f e9 ac a4 3f
       1.6434721 -0.102848545 1.1371684 1.2865268
0000b0 3a ea 0f bd 6b a9 58 3f e2 7f 45 3f d3 b8 da bd
       -0.035135485 0.8463351 0.7714826 -0.10679784
0000c0 e7 88 01 40 69 c8 ca 3f 9e 4c fa bd 94 d8 a1 3f
       2.0239809 1.584241 -0.12221645 1.2644219
0000d0 25 88 9d 3f fe e7 3b 3d 5e b6 ee be 5c c8 92 be
       1.2307173 0.045875542 -0.4662351 -0.28668487
0000e0 46 dc b3 be a7 6d 09 bf 41 5e 98 be 17 b9 d1 be
       -0.35128993 -0.5368294 -0.2975941 -0.40961525
0000f0 6a d3 bf be b3 d2 98 be 8f 4a 24 bf dd b1 1f bf
       -0.37465984 -0.2984825 -0.6417627 -0.6238077
000100 2e 95 15 3f bd 8b 01 3f ed 71 4a 3f 8f 13 0e 3f
       0.58430755 0.5060385 0.79080087 0.55498594
000110 8d f5 25 3f 60 39 52 3f a9 df 15 3f 02 d2 00 3f
       0.64827806 0.821188 0.58544403 0.50320446
000120 78 a6 a8 be 9e 10 c8 be 96 45 0b bf 12 e0 d7 be
       -0.32939506 -0.39075178 -0.54403055 -0.4216314
000130 19 81 f6 be b2 bf 8e be 3c 9d 0f bf 09 97 06 bf
       -0.4814537 -0.27880627 -0.56099296 -0.5257421
000140 2a 24 24 bf ae 54 09 bd b4 84 4d be 8e 77 e4 bd
       -0.6411768 -0.033528022 -0.20070153 -0.11155616
000150 fb f3 96 bc 11 6a 44 bf 0f 15 a6 be 73 7e df bd
       -0.018426886 -0.76724344 -0.3243794 -0.1091279
000160 c9 6f dd be 0a 99 5b be 84 0c 93 bc 4e c1 4e be
       -0.43249348 -0.21445099 -0.017950304 -0.20190927
000170 5e 86 a1 bd 0f f5 0e bd 9e f0 54 bf 70 9e 87 be
       -0.07886957 -0.034901675 -0.8317965 -0.26488066
000180 50 d2 e4 bd 50 ae dd be b4 86 22 be 6f a3 35 bc
       -0.111729264 -0.43297052 -0.15871698 -0.011086329
000190 61 23 40 be 05 c8 a5 bd 59 c5 ef bc aa 41 4e bf
       -0.18763496 -0.08094791 -0.029268907 -0.80568945
0001a0 12 5f 85 be 1a b2 c5 bd b5 e8 d4 be a3 41 27 be
       -0.26049095 -0.09653111 -0.4158379 -0.16333632
0001b0 68 15 ee be f0 cc 12 bf d9 5c c8 be ff ca 0d bf
       -0.46500707 -0.5734396 -0.39133337 -0.5538787
0001c0 5d 59 1b bf 28 27 ad be 6a 66 f0 be 5c 9f f4 be
       -0.6068323 -0.33818936 -0.46953136 -0.47777832
0001d0 37 ea 01 bf 12 c8 7b 3e 57 ac 36 3e be 14 7b bf
       -0.5074801 0.2458804 0.1783918 -0.98078525
0001e0 88 89 d3 3e 16 1d b2 be b8 ee 1f 3d 51 be c8 3e
       0.41315866 -0.34787816 0.03904602 0.392077
0001f0 6e 58 fe 3e eb cf 75 bf d8 cb 8e be 0c d1 b8 be
       0.49676841 -0.9602038 -0.27889895 -0.3609699
000200 67 89 be be 40 98 a5 be ab 6d 33 bf 77 26 16 bf
       -0.37214205 -0.3234272 -0.70089215 -0.5865244
000210 1d 3e 07 bf 68 35 d9 be 65 46 bd be 0f dc 11 bf
       -0.5282915 -0.42423558 -0.3696777 -0.5697641
000220 95 4c 12 bf 50 85 ec be 0b c8 e3 be 7a e1 21 bf
       -0.57148105 -0.4619546 -0.44488558 -0.63234675
000230 b9 58 ef be 94 8d b0 be 70 77 25 bf 63 bf 9c be
       -0.46747378 -0.34483016 -0.6463537 -0.30614766
000240 9b 0b 07 bf 90 22 9c 3e a3 6b 9e 3d 87 3a a7 3e
       -0.52752084 0.3049512 0.07735374 0.3266184
000250 5d e7 0e 3e 32 a8 3e 3e 76 99 f3 be 25 38 42 3e
       0.13955446 0.18618849 -0.4757802 0.1896673
000260 d5 0f 74 3e 3d c7 b3 be bf ea 30 bf d6 35 ba be
       0.23834164 -0.35112944 -0.69108194 -0.363692
000270 85 83 e5 be f6 fc 2a bf a1 2c 19 bf c0 a3 21 bf
       -0.44826904 -0.6679224 -0.59833723 -0.6314049
000280 0e 89 0d bf c4 a0 b4 be 94 02 b0 3f a5 43 0f 3f
       -0.55287254 -0.35278904 1.3750787 0.5596259
000290 30 14 00 bf fe 34 2d 40 76 30 c2 3f 1b 9f 41 bf
       -0.50030804 2.7063594 1.5171039 -0.756334
0002a0 04 1b df 3f 73 91 75 3f 43 19 da be 6d 79 ae 3f
       1.743012 0.9592506 -0.42597398 1.3630806
0002b0 b4 19 22 3f c3 92 8a be b7 8f 28 40 d7 ff e0 3f
       0.6332047 -0.27065095 2.6337717 1.7578076
0002c0 8a 57 36 bf 96 e1 e6 3f b1 e4 92 3f b0 a6 32 be
       -0.71227324 1.8037593 1.1476041 -0.17446399
0002d0 1d 2b 9c 3f b4 81 1d 3f 78 3e c5 be 60 85 20 40
       1.2200657 0.61526036 -0.38524222 2.5081406
0002e0 e5 5f e0 3f a9 6c 13 bf c3 d6 d3 3f 5d f5 8d 3f
       1.7529265 -0.5758768 1.6549915 1.1090504
0002f0 bc 28 82 be 5a b0 c2 3e ac 05 8e 3d dd 9a a1 3e
       -0.25421703 0.3802517 0.069346756 0.31563464
000300 ff a7 08 3f 9b f7 5e 3e a8 3d 03 3f b4 93 fe 3e
       0.5338134 0.21774141 0.51265955 0.49722064
000310 49 0f 23 3e bd 0f 03 3f 68 4c 81 3e 13 cd 12 bf
       0.159238 0.5119589 0.25253606 -0.5734417
000320 2c 5a c7 3d 63 20 aa 3c 68 b8 75 bf 6f 6c 4a be
       0.09733996 0.020767396 -0.95984507 -0.19767927
000330 1a 50 04 bd ec 4f 5c bf ef ca 39 3e 84 38 92 3e
       -0.032302953 -0.8605945 0.1814382 0.28558743
000340 e5 78 a0 3d 98 49 c3 3e 85 01 84 3e 9d c3 bd 3e
       0.07835559 0.38142085 0.2578241 0.37063304
000350 ea 0f d1 3e 70 7f 81 3e 85 28 2d bb ea 29 b5 3e
       0.40832454 0.2529254 -0.0026421857 0.3538354
000360 94 e4 44 3f fa f9 43 bf 1e ca 80 bf 71 e7 50 3f
       0.7691128 -0.7655331 -1.0061681 0.8160315
000370 a0 9f 81 bf 53 b0 b0 bf 0e 78 46 3f 5b a4 82 bf
       -1.0126839 -1.380381 0.7752694 -1.0206407
000380 86 f0 86 bf 9a 64 4f 3f b1 31 26 bf aa ac 53 bf
       -1.0542152 0.8101288 -0.64919573 -0.8268534
000390 2d 2b 65 3f 86 3d 6f bf d2 a6 9b bf bb 81 58 3f
       0.89519006 -0.9345325 -1.2160285 0.84572953
0003a0 7c f4 6d bf 70 0a 56 bf fc 2f 1d 3f fd 71 37 bf
       -0.9295118 -0.83609676 0.61401343 -0.7165831
0003b0 8e 7e 3e bf cd f6 3d 3f b8 16 76 bf 35 23 99 bf
       -0.7441186 0.74204713 -0.96128416 -1.1963869
0003c0 fd ec 20 3f 77 1f 6d bf 1a cf 67 bf a5 58 4a bf
       0.62861615 -0.92626137 -0.90550387 -0.7904151
0003d0 73 69 44 bf fe ef 26 bf 00 0f 1a bf f7 76 1b bf
       -0.767234 -0.6520995 -0.6017914 -0.607284
0003e0 4e cc 0e bf 11 86 e0 be 92 1d 1e bf 0c 04 20 bf
       -0.55780494 -0.43852285 -0.6176387 -0.62506175
0003f0 3d df fb be 13 9c 1a bf 0e 95 12 bf c4 df 1d bf
       -0.49193755 -0.603944 -0.5725869 -0.61669564

decoder.2.bias f4 [3]
000000 3f d6 01 3f 59 2e 55 3e 3b 59 33 3e
       0.5071754 0.20818461 0.17514507
