trained_models2/autoencoder_paper_lr0.01.pt (torch, 16524 bytes, 8 tensors)

encoder.0.weight f4 [16, 3, 3, 3]
000000 dd dd 3a be 0b 2d 5f 3d 90 85 31 be 2e bf 6d be
       -0.18248697 0.054486316 -0.17336106 -0.2321746
000010 1b 89 27 be b5 6e de 3d e8 c2 2c be 90 1d 16 3e
       -0.16360895 0.108609594 -0.16871226 0.14659715
000020 32 3f 03 3e 68 d7 c2 bd 62 f7 93 3d ad 0b 2e be
       0.12817076 -0.09513742 0.07224919 -0.16996641
000030 30 03 cb 3c 72 f7 17 3e fb 18 0f 3e c3 25 1e be
       0.024781793 0.14840487 0.13974373 -0.15444092
000040 9a d1 82 bb 20 e1 c6 3b e8 79 1d be 4f 96 91 bd
       -0.0039922716 0.0060693175 -0.15378535 -0.07108747
000050 bc 9e 19 3e cd bb 07 3d e1 e2 09 3e 68 7b 33 bb
       0.15001959 0.033138085 0.13465454 -0.0027386788
000060 d1 96 8e bd 26 c7 23 3e 09 ca 2b bd 37 81 7d 3e
       -0.0696236 0.15993938 -0.041940723 0.24756323
000070 29 7c af ba bf c1 1c be 01 5a 30 3d 62 16 de 3d
       -0.0013388443 -0.15308283 0.043054584 0.10844113
000080 f0 0c 7c bd 13 4e 54 bd 37 83 c9 3c 21 c0 b0 3d
       -0.061535776 -0.05183227 0.0245987 0.08630396
000090 29 0e 12 be ec 3d 05 3e 70 60 1c 3e f2 a2 46 3e
       -0.14263214 0.13011903 0.15271163 0.19398096
0000a0 b5 69 58 3e 24 0b 2f 3e 97 e3 2a 3e d4 02 6f bc
       0.21134074 0.17094094 0.16688381 -0.014588077
0000b0 a9 29 9a 3c 75 d8 2e 3e 74 12 8a 3e a5 e4 17 bd
       0.018818693 0.1707476 0.26967204 -0.037083287
0000c0 2c db 7c 3e 2c 4d 85 3e cb 10 1f 3e 3e 15 bc 3d
       0.24692982 0.2603544 0.1553375 0.09183739
0000d0 f5 7d 33 3e af 94 52 3d cf 7b 6f 3d a8 4a f7 3c
       0.17528518 0.051411327 0.058467682 0.030186966
0000e0 90 1c 2a be 49 2b 06 be 28 8a 05 be 56 e8 33 be
       -0.16612458 -0.1310245 -0.13040984 -0.17569098
0000f0 5e a5 56 bd 9c c1 2a be ef 82 6c 3d 60 63 ce 3c
       -0.0524038 -0.16675419 0.057742056 0.02519387
000100 d2 aa 19 be f5 a2 0a 3d cf af 4f be ea 0c 03 bd
       -0.15006569 0.033846814 -0.2028191 -0.031994738
000110 b9 a3 93 be ef ca f3 3b 88 aa 8e be 85 46 99 be
       -0.28835848 0.007439963 -0.2786448 -0.29936615
000120 41 8b 2d be 45 3c cf bd 95 ba 2a bd 34 bd e5 3b
       -0.16947652 -0.101189174 -0.041681845 0.00701108
000130 fa 08 a8 3c 26 52 a8 be b5 a0 a9 bd e8 6c 91 be
       0.020512093 -0.32875174 -0.082826056 -0.284034
000140 36 ae 75 be fa 94 0c be 22 1d f3 3c d4 52 cd bd
       -0.23992237 -0.13728705 0.029676978 -0.10025564
000150 9c 66 7f 3d 11 e4 b4 3e 07 71 f2 bd e5 5c a4 3d
       0.062353715 0.3533025 -0.118379645 0.08025531
000160 79 92 a2 3e 06 80 c1 bb 80 2e 77 be c9 a7 ff 3d
       0.31752375 -0.005905154 -0.24138832 0.12483174
000170 65 fc c5 bd f9 80 80 3d 57 bf 65 3e f1 d4 e1 3d
       -0.09667281 0.062745996 0.22436272 0.110269435
000180 c2 85 53 be fd 14 83 bd 9c 8a 6b be 91 73 89 be
       -0.20656493 -0.064004876 -0.23002094 -0.26845983
000190 fa 0a 14 be 06 3b bf 3c 1d 69 a7 bd 37 b3 36 3e
       -0.14457312 0.023343574 -0.08174346 0.17841803
0001a0 9d da 87 3d fe 6a 53 be 8c 1e 80 3d 49 29 41 be
       0.06633494 -0.20646283 0.06255826 -0.18863405
0001b0 85 0d b3 be 59 6a 16 3d 69 08 d1 be bc c9 3f 3e
       -0.34971252 0.036722515 -0.4082673 0.187293
0001c0 a6 71 6f 3d e7 3c 16 be 40 44 90 be 8c a3 98 be
       0.058457993 -0.1467167 -0.2817707 -0.29812276
0001d0 df b9 5c be f2 f8 9b be ae f3 02 be 78 52 84 be
       -0.21555279 -0.30463368 -0.12788269 -0.2584417
0001e0 84 ef b3 be 3b 2e 5e bd 2c 6e 44 bd 58 c3 99 be
       -0.35143673 -0.054243308 -0.04795663 -0.30031848
0001f0 c2 6d 5d be 29 8b 8d be c7 5a 8b be eb 30 b1 3a
       -0.216239 -0.27645233 -0.27217695 0.0013518607
000200 87 fd b9 be b0 3b c8 bd eb 13 9b 3d ea 2d 2f be
       -0.3632624 -0.097770095 0.075721584 -0.17107359
000210 3a 99 fb be ee f1 ac be 67 cd 21 bd 07 74 22 3e
       -0.4914034 -0.33778328 -0.039502528 0.15864573
000220 dc 5b 3f bc 29 87 27 bc 10 d3 ae 3d dd 44 e8 bd
       -0.011679616 -0.010225096 0.08536351 -0.1134126
000230 34 0b eb bc 8e bc db bc 05 00 2f 3e 6a 3d d4 3d
       -0.028691866 -0.026823308 0.17089851 0.10363276
000240 88 8e 8c bc 2b 10 ee bd 70 69 6d be a6 89 9c 3d
       -0.017157808 -0.116241775 -0.23184752 0.07643442
000250 ba 80 86 be d1 a0 3d be 6c a7 b4 3c 1e 66 63 be
       -0.26270086 -0.18518378 0.02205249 -0.22206923
000260 24 04 06 be d8 ef 4b bc 53 77 87 be 6d a4 28 be
       -0.13087517 -0.01244732 -0.26458225 -0.16468973
000270 94 18 a7 bd a1 65 fd 3c 56 36 a4 be 71 ea 8a 3d
       -0.08158985 0.03093225 -0.32072705 0.067829974
000280 71 52 67 be 5d 57 f6 bd 53 a4 75 3e 45 71 fe 3d
       -0.22590043 -0.12028382 0.23988466 0.12423948
000290 93 f1 be 3d 90 10 10 3d 2a 25 ca 3e d5 52 7a 3d
       0.093234204 0.035172045 0.3948148 0.06111415
0002a0 d8 1e 82 3e 20 9d 01 3d 71 91 1d 3e 28 ff be bd
       0.25414157 0.031643987 0.15387513 -0.09326011
0002b0 38 af 21 3e 35 34 06 be b8 1e 8b 3e f6 86 7c 3d
       0.15789497 -0.13105853 0.27171874 0.061652146
0002c0 8e cd 99 3d f2 71 2b 3c 56 2f 43 bc 64 03 06 3d
       0.075099096 0.010464178 -0.011913141 0.032718077
0002d0 41 89 87 bd 19 26 df bd 49 3e 7d be bc 80 a5 3d
       -0.06617976 -0.108959384 -0.24730791 0.08081195
0002e0 32 36 82 3e c5 b7 0e be 64 df 0a 3e 45 69 84 bd
       0.25431973 -0.1393729 0.1356178 -0.06465391
0002f0 8f b0 af be 72 eb 2b be a1 fe d6 3c fe 48 8b bc
       -0.3431439 -0.16789034 0.026244463 -0.017002579
000300 d7 6f d5 3b 55 86 9e bd 84 c4 fd bc a3 a6 2f be
       0.0065135765 -0.077404656 -0.030977495 -0.1715341
000310 3a 3d 9f bd 5c ae 25 3e b6 b0 2f bc 56 c1 fe 3d
       -0.0777535 0.16179794 -0.0107232835 0.1243922
000320 47 c0 48 be 9a 35 3f 3c 08 87 bf 3d bc f6 27 be
       -0.19604598 0.011670494 0.09351927 -0.16402715
000330 09 5a 00 3c 70 5d 4b be 64 18 77 bd 6b 49 82 bd
       0.007833966 -0.19859862 -0.060325995 -0.063616596
000340 67 52 2b 3e b4 33 49 bd 9b aa 32 be 3a 2c 36 be
       0.16730653 -0.049121574 -0.17447893 -0.17790309
000350 4d e3 95 bc 61 48 ff 3d ba ae 20 3e 4d 95 e9 3d
       -0.018296862 0.12464977 0.15691653 0.1140543
000360 ec bc 04 3d 77 df 79 be d7 c3 73 3c 83 48 60 be
       0.032406732 -0.24401651 0.014878235 -0.21902661
000370 44 61 53 bd e3 3b 53 3e 41 9c 9a be 44 68 85 be
       -0.05160643 0.20628314 -0.30197337 -0.2605611
000380 71 bf 3f bd 24 4b 30 3c 1a 6a b1 3d 55 2f 3e 3e
       -0.046813432 0.010760102 0.086628154 0.18572743
000390 85 55 06 be ad e6 95 bd 87 25 d5 3d 69 d8 e1 bd
       -0.1311856 -0.073193885 0.104075484 -0.11027605
0003a0 7d d8 08 bc 3c 00 0e 3e da 25 6e 3e f8 54 2c 3d
       -0.008352396 0.13867277 0.23256627 0.04207322
0003b0 cc 07 22 bd a3 e9 b2 3c d5 08 d8 bc 20 86 26 3d
       -0.039558217 0.021839922 -0.026371399 0.040655255
0003c0 ec 4e 4d be 29 4d 2e 3d 60 8e 63 3e 90 25 9d be
       -0.20049638 0.042554054 0.2222228 -0.3069272
0003d0 8f b4 c2 3d 9f dc d9 3d 7c 8b 84 be 41 62 9f bd
       0.09507095 0.10637783 -0.25887668 -0.07782412
0003e0 ed 14 26 be 4f 6b 2d be c9 c3 4e 3d 84 3f 12 be
       -0.1621892 -0.16935466 0.050479684 -0.14282042
0003f0 af c8 ea 39 f5 44 cb 3d 5d d5 a0 3d 69 b4 dc bc
       0.0004478148 0.09925262 0.07853196 -0.026941495

encoder.0.bias f4 [16]
000000 cd a0 37 3f d4 70 21 bf 7a 7e 33 3f c4 5b 83 3e
       0.7172974 -0.6306279 0.7011486 0.2565595
000010 35 66 38 be 86 09 e3 3e b6 6a 78 bf ee 7c 3b be
       -0.18007739 0.44343203 -0.9703783 -0.18309376
000020 f5 1d 2a 3f e6 4a f5 3e 52 22 02 3f d5 85 2c 3f
       0.6645196 0.47908705 0.5083362 0.6739171
000030 dd 13 a7 3e a4 a4 b7 be 9a 42 3a be 7c 72 50 3f
       0.32632342 -0.35867798 -0.18189469 0.8142469

encoder.2.weight f4 [8, 16, 3, 3]
000000 85 0e 2f 3e df f0 53 3e 96 1d 13 3d 6f 43 ce 3d
       0.17095383 0.20697354 0.035916887 0.10071456
000010 39 b5 e7 3d 5b 1d 14 3e 85 13 2a 3e 43 b0 3a 3e
       0.11313862 0.14464323 0.16609009 0.18231301
000020 d7 be 22 3e 3a 21 26 3f a1 ae cd 3d bd cc f5 bb
       0.15893112 0.6489445 0.100430734 -0.0075012133
000030 ff da 4b 3f 3d 36 6d bc d9 b0 28 bc 06 28 3a 3f
       0.79631037 -0.014478263 -0.01029607 0.7271732
000040 ed c1 a7 bc b6 4f 0d be da 7b cd 3e ab 92 b4 3e
       -0.020478213 -0.13799939 0.40133554 0.3526815
000050 a5 a7 1d 3f 73 e8 aa 3e 19 47 d3 3e 17 99 2a 3f
       0.6158393 0.3338047 0.4126518 0.66639847
000060 77 4a e0 3e b5 ea c8 3e b2 7d 16 3f a6 87 bc 3e
       0.43806812 0.39241567 0.58785546 0.36822242
000070 b4 f9 08 be c5 ce 4b bd 00 3f 18 3f 23 23 81 bd
       -0.13376504 -0.049757738 0.5947113 -0.0630553
000080 52 ce 32 bc 8b a9 ac 3e 37 88 ce bc e1 6e 01 bb
       -0.010913448 0.337231 -0.025211437 -0.0019749927
000090 2a 6a 24 3e 79 d7 54 be 34 a9 ea 3b 46 2c 78 3e
       0.16056123 -0.20785321 0.007161284 0.24235639
0000a0 1d b6 1b be b0 14 74 bd 49 8c 86 3e ab 31 41 be
       -0.1520619 -0.05959004 0.26278904 -0.18866603
0000b0 76 16 98 bc 79 d0 d2 3d 53 5c 45 3e 0a 20 a4 3e
       -0.018565398 0.10293669 0.192735 0.32055694
0000c0 65 ce 14 3e fc 51 9d 3e 39 c1 c9 3e aa ae 3f 3e
       0.14531858 0.30726612 0.3940523 0.18718973
0000d0 03 c3 61 3e f1 4d 91 3e 70 f2 2a 3f e5 aa 89 3d
       0.22047047 0.28379777 0.6677618 0.06722049
0000e0 d3 7b a3 3b 4c 74 0f 3f b9 13 3e 3d e7 07 d1 bd
       0.004989126 0.5603683 0.046405528 -0.102065854
0000f0 7c f2 0a 3f 47 2d de 3c e3 bd 36 be 77 5f 1e 3d
       0.5427625 0.0271212 -0.17845874 0.03866526
000100 6d d6 9a 3d 40 44 7b 3b 56 4a 01 bc ab 31 0c 3d
       0.0756043 0.003834024 -0.007891258 0.034227055
000110 2b 0a 70 3d b5 ca 9e bd 03 0d a9 bd 04 3b e4 bc
       0.058603447 -0.07753507 -0.08254435 -0.027860172
000120 46 66 b9 3d 6d 77 ed 3e fc 14 96 3e cb da 23 3e
       0.0905271 0.46380177 0.29312885 0.16001432
000130 39 69 dc 3e a8 54 4d 3e 73 d1 14 3e 4e 6a d6 3e
       0.4304903 0.20051825 0.14533024 0.4187798
000140 cd ed 8c 3e 30 5b 12 3f 0f 44 ba 3e 6b 94 d3 3d
       0.27525178 0.5717039 0.3638005 0.10331043
000150 a7 22 f1 3e 77 68 90 3e 3f 16 fa 3d 5b ed e9 3e
       0.4709675 0.282047 0.12211274 0.456889
000160 77 ab ac 3e 2d 09 87 3e 1b c7 e4 3e 08 14 5a 3e
       0.33724567 0.26374188 0.44683155 0.21296704
000170 6e b1 bc 3e 44 39 16 3f 9c 32 3d 3e f7 3b c0 3e
       0.36854118 0.5868113 0.18476337 0.3754575
000180 f0 c3 06 3f 4d 76 68 3e 53 dd cb 3e 37 c0 8f 3e
       0.52642727 0.22701378 0.39817294 0.28076336
000190 9d da cd 3e c2 3b 09 3f ca 45 8d 3e 6b 6d 9d 3e
       0.4020585 0.5360681 0.27592307 0.30747542
0001a0 9e 5f fd 3e 5b 40 9f 3e 36 4e ae 3e a0 79 fa 3e
       0.49487013 0.31103787 0.34044045 0.48920918
0001b0 bf 9e 18 3f a7 34 92 3e a6 a8 e9 3e 06 dc 3e 3f
       0.5961723 0.28555796 0.4563648 0.7455448
0001c0 6f 60 80 3e 1c 33 b1 3e 19 bd 3b 3f bb a8 98 3e
       0.25073573 0.34609306 0.73335415 0.2981623
0001d0 86 05 ca 3e f7 ae 50 3f b5 83 0d 3e 48 d0 9e bd
       0.3945734 0.81516975 0.13819773 -0.0775457
0001e0 97 6c 64 3f 6f c8 14 3e 0a e2 9f bd 0d e7 51 3f
       0.89228195 0.14529584 -0.078067854 0.8199318
0001f0 29 8a 3d 3d e1 6a 86 bc cf b1 c8 bc ce ef 97 bc
       0.046274338 -0.016408386 -0.024498848 -0.018546965
000200 2e 90 b8 3d 8d a3 9e 3b ba 30 c5 3c 03 31 3a bd
       0.09011875 0.004841274 0.024071086 -0.045456897
000210 2f db 5e 3c eb 8b c3 bd 01 13 7a 3c 76 bf 40 3e
       0.013602062 -0.095481716 0.01526332 0.18823037
000220 10 53 71 3e f2 09 b2 3e 73 ac 86 3e a2 73 6b 3e
       0.23566842 0.34773213 0.26303443 0.22993329
000230 97 aa c9 3e 50 b9 59 3e f1 7f a6 3e 4b 73 b4 3e
       0.39387962 0.21262097 0.32519487 0.35244212
000240 b8 9e dd 3e f8 8e 9f 3e 78 2c 88 3e 8b d2 11 3f
       0.43285155 0.31163764 0.26596427 0.5696189
000250 1c e7 c3 3e 44 06 41 3e 39 89 21 3f b3 89 73 3e
       0.3826226 0.18850046 0.6310001 0.23782997
000260 40 00 38 3e 92 cb 0d be ce e2 d6 bc 7a 0f 42 be
       0.17968845 -0.13847187 -0.026231196 -0.18951216
000270 cc 56 80 bb 7a 43 15 3e 7a 69 2c 3e 8e 97 e6 3d
       -0.003916597 0.14576522 0.16837111 0.112593755
000280 ee ef 82 3e df 57 6f 3e 92 3a a1 3e 97 e2 ba bd
       0.25573677 0.23373364 0.31489998 -0.0912525
000290 14 bd f3 3d 13 ae cf 3e e7 05 90 be ed 14 44 3d
       0.11901298 0.40562496 -0.28129503 0.04787152
0002a0 71 0f 13 3e 9e 64 9e be ee d7 67 bd 07 9f ac bd
       0.14361359 -0.3093614 -0.05660241 -0.084287696
0002b0 5d 23 d0 3c 3c 0f a2 3d fa 29 d2 3d 14 0d 73 3e
       0.025407488 0.07913062 0.10261913 0.23735458
0002c0 80 7e c5 3e 6a 97 83 3e 84 b7 b6 3e 3b 0e ca 3e
       0.38573074 0.25701457 0.35686886 0.39463982
0002d0 5a 10 82 bd 9a ad b4 bd 7f dd 8b be 99 4a b2 3d
       -0.06350775 -0.08822174 -0.27317426 0.087056346
0002e0 87 be 5e 3e ff 07 2e 3e 20 33 87 3e f3 c1 b3 3e
       0.21752368 0.16995238 0.26406193 0.3510891
0002f0 14 61 8e 3e 82 14 bd 3d 31 43 96 3e 6d e5 30 3e
       0.2780844 0.09232427 0.29348138 0.17275019
000300 fe f0 aa 3d 02 14 0b 3e ac 41 ab 3d 01 ac 3e be
       0.08346747 0.13581851 0.08362135 -0.18620302
000310 88 35 f8 bd f4 bd b0 bd 8f 30 99 be 1c 3b ca bd
       -0.12119585 -0.08629981 -0.2991986 -0.098745555
000320 50 84 2e be 76 67 7a bc 0a 07 51 3e 7d 73 3e 3e
       -0.1704266 -0.015283456 0.20412841 0.18598743
000330 3d 18 31 bd af 82 9f 3e ad 49 8d 3e 9e 27 5e 3d
       -0.043236006 0.3115439 0.27595273 0.054237
000340 b6 1f 67 3c 84 03 9b 3d 3f 85 a3 bd a6 02 41 bd
       0.014106682 0.0756903 -0.07984399 -0.047121666
000350 2b 0e 91 bc 01 cb 3a 3d 3d e4 c7 bc 4d df 28 bd
       -0.017706951 0.045603756 -0.024400825 -0.04122858
000360 be 6e 46 3e 02 01 b3 3d 33 96 66 be 40 98 e3 3e
       0.19378182 0.087404266 -0.22518234 0.44452095
000370 89 4e df 3e 99 ab ae bd 84 f1 ef 3e 7a 01 9a 3e
       0.43614605 -0.085288234 0.4686395 0.30079252
000380 a5 c9 2c be 63 6a 2b 3e ff 29 41 bd 10 de 8e 3c
       -0.16873796 0.16739802 -0.04715919 0.017439872
000390 1e 27 a3 3e 89 cf b0 3d 06 bd 75 3d ff b7 99 3e
       0.31865782 0.08633334 0.05999472 0.3002319
0003a0 ec 4e 88 3d 86 ce c4 3d 61 ed ae be b9 b1 b8 be
       0.06655678 0.09609704 -0.3416548 -0.36073092
0003b0 cf a4 da be a3 69 ac be 6d d1 cd be 1b 20 05 bf
       -0.42703864 -0.33674344 -0.40198842 -0.52002114
0003c0 18 a8 46 bf 24 7b 34 bf f1 a7 27 bf e3 ae a7 bf
       -0.7760024 -0.705004 -0.65490633 -1.3100246
0003d0 da a5 e2 bf 0b ff 03 bf 4c ce c7 bf d1 12 07 c0
       -1.7706864 -0.5156104 -1.5609832 -2.1105235
0003e0 5e fe 35 bf 00 3e ef bf 2a 40 0d c0 3b 5d 6f bf
       -0.7109126 -1.8690796 -2.2070413 -0.93501633
0003f0 3f f3 9d bd 77 18 a4 be d5 43 d1 be 53 0c 48 3e
       -0.07712411 -0.32049915 -0.40872064 0.19535951

encoder.2.bias f4 [8]
000000 e6 d8 08 3f 25 5d 1c 3e b2 9a 01 bf da 52 67 be
       0.5345596 0.15269907 -0.5062667 -0.22590199
000010 f3 0b 50 bf 09 91 61 3e 68 94 82 be 71 7f 1b bf
       -0.81268233 0.22027983 -0.2550385 -0.60741335

decoder.0.weight f4 [8, 16, 3, 3]
000000 9a d3 0b 3e 8e b6 d7 3e 97 1e 04 3f 7e da 1d 3f
       0.13654938 0.42131466 0.51609176 0.6166152
000010 ef 9c 69 3f 97 36 67 3f 3d d5 d9 3e 24 0a 6d 3f
       0.91255087 0.9031767 0.425455 0.925936
000020 2f 98 80 3f c4 3f 42 3e 94 93 8b be ef f3 2d be
       1.0046443 0.18969637 -0.2726103 -0.16987585
000030 b6 b6 5d 3c 26 82 d7 3c e0 6d c8 bc ce 25 ea 3d
       0.013532331 0.026307177 -0.024466455 0.11432992
000040 81 a4 bf 3d 8b 84 ad be ce ed 70 3c 35 a2 8f bd
       0.093575485 -0.33890185 0.014705135 -0.070133604
000050 c7 f2 bc 3c b2 0d cb bd 41 6c 8a bd df d1 07 bd
       0.023064984 -0.099147215 -0.06758929 -0.033159133
000060 5e b1 5b bd ad 57 0f 3c bb e1 fa bd fa fa 98 bd
       -0.053635947 0.008748931 -0.12250086 -0.07469745
000070 5f 3a c7 bd 10 bb 70 bd 00 e5 94 3b 2b ee 41 3b
       -0.0972793 -0.058772147 0.0045439005 0.0029591422
000080 29 88 57 bd 96 03 a8 bb 37 fe 9b 3c 20 94 82 bc
       -0.052620087 -0.0051273806 0.019042118 -0.015939772
000090 45 5e 20 bd 18 a9 b9 be ce 06 10 bd 6e 3e 59 bd
       -0.039152402 -0.3626182 -0.03516274 -0.053038053
0000a0 61 f7 64 3d ab 20 53 bd 6b 2c f6 bd 4a 12 4a be
       0.05589998 -0.051544826 -0.12020191 -0.19733539
0000b0 6a 18 21 bd 7f 2b 7a bc 56 5c 82 bc 1f 40 3e bd
       -0.039329924 -0.015269159 -0.01591317 -0.04644787
0000c0 58 33 6a 3d 9d 21 eb bc 00 a4 7e ba da f6 c7 bc
       0.05717787 -0.028702551 -0.0009713769 -0.0244097
0000d0 56 e7 2e 3b 6c 78 29 bd 01 cc 34 3e 40 8d f7 3e
       0.002668818 -0.04137461 0.17655946 0.48349953
0000e0 d8 31 f7 3e 05 cc 9f 3e 0f fe 73 3f f0 53 8e 3f
       0.48280215 0.31210342 0.9530954 1.1119366
0000f0 c7 4d 04 3f 7a 72 74 3f ac 8c 6d 3f c1 bb 2f 3d
       0.5168118 0.9548718 0.92792773 0.042903665
000100 8b 7e 5f bd 55 24 33 bc a9 ee 95 bc 70 e1 c5 bc
       -0.05456404 -0.010933955 -0.018302279 -0.024155349
000110 57 7e 31 bd d3 95 24 3d cf 3f 20 3c 79 83 b6 bd
       -0.043333378 0.040181946 0.009780838 -0.08911795
000120 63 12 0d 3e 8a 3d 9f 3d 3b 40 60 3a bb 22 1a bd
       0.13776545 0.077754095 0.0008554493 -0.037630778
000130 08 0f 37 bd 82 97 ab bd 33 6b 2b 3e 0b a8 4b bc
       -0.04469207 -0.08378507 0.16740112 -0.012430201
000140 43 91 8c bd ce 87 f0 ba 96 44 90 bb 76 79 ce bd
       -0.06863644 -0.001835102 -0.0044027073 -0.100817606
000150 56 25 f1 3c c7 fb 83 3d 6c e5 4d 3c 04 d2 7c 3b
       0.029436748 0.06444507 0.0125669055 0.0038577328
000160 ab 98 30 ba 06 94 ef bd 65 2a 7b 3e 20 ee bb bc
       -0.00067366165 -0.11698155 0.24527891 -0.022940695
000170 3c 4e e4 bd 48 ef a0 3e b4 07 93 bd dd ae 28 be
       -0.111477345 0.31432557 -0.07179204 -0.16472955
000180 a8 f2 19 3e 4b 1f 3d 3c d6 ed 14 be 53 c3 0e bd
       0.15033972 0.011543105 -0.14543852 -0.034854244
000190 40 91 06 3c 8b f1 82 bd 27 3b 3f 3e 34 52 f3 bd
       0.008213341 -0.06393727 0.18674909 -0.118809134
0001a0 ed 87 04 bf 91 33 8a 3c 1e b0 80 bd ef e2 90 bd
       -0.51769906 0.016870292 -0.06283592 -0.07074534
0001b0 44 c9 82 3d 0c c0 5c be 5a e3 6b be fa 89 93 3d
       0.063860446 -0.21557635 -0.23035946 0.07204051
0001c0 86 41 98 bc d1 c7 37 bf 90 53 91 3d 58 c1 5f bd
       -0.018585932 -0.7178927 0.070960164 -0.054627746
0001d0 fa cd d5 be ca 54 6d bd 40 3f 8e be a4 c3 f8 bd
       -0.4175871 -0.05794219 -0.2778263 -0.121466905
0001e0 8a 99 d3 bc e7 58 ed 3b 5f 2c 68 bd 55 9b 18 bd
       -0.025830049 0.007243264 -0.05668294 -0.03725751
0001f0 59 5e c6 bd be b2 c7 bd f0 78 cb bc 4f 98 a6 be
       -0.09685964 -0.09750889 -0.02483794 -0.32538077
000200 ff 95 ae bd b4 f8 a5 3c f5 58 b5 bd 68 b4 ee bd
       -0.08524703 0.020260192 -0.08854858 -0.116555035
000210 dc 1b 71 bd 9d c5 aa bd ef 03 0e be 76 aa dd bc
       -0.05886446 -0.08338473 -0.13868688 -0.027058821
000220 fc 0a f8 bd 36 d1 26 bc d6 a8 72 3b 2d 30 3c be
       -0.1211147 -0.010181716 0.0037026904 -0.18377753
000230 d6 d4 14 bd 0e d8 2d bd e6 fd 57 bd 96 a5 26 be
       -0.03633579 -0.042442374 -0.05273237 -0.16274104
000240 73 48 2f be 6b 3c 02 be db f6 d7 bc 31 3b 6d 3e
       -0.17117481 -0.1271836 -0.026362827 0.23167111
000250 7c 51 29 be ab 08 f0 bd 13 e0 51 be 60 e3 7b be
       -0.1653499 -0.11720403 -0.20495634 -0.24598455
000260 a1 98 53 3d fd be fe bc 28 20 02 3d 7f 95 96 3e
       0.05165923 -0.03109693 0.031768948 0.2941093
000270 82 ea 86 bd 2b 58 8c bb 5b 1b d7 bc 26 70 7e 3e
       -0.065876976 -0.0042829714 -0.026258161 0.24847469
000280 eb 43 0d 3f 04 ab 0f 3f fd 18 82 bd 8f 5b 38 bc
       0.5518176 0.56120324 -0.063524224 -0.011252298
000290 bd 43 93 bc 53 d9 03 bd 70 a5 94 bd c2 e9 f6 bc
       -0.017976636 -0.03218968 -0.07258117 -0.030140761
0002a0 70 98 09 be b5 28 b8 bd 27 2c 10 be c6 77 2f 3d
       -0.13437057 -0.08992139 -0.14079343 0.042838834
0002b0 46 bb cd bd 8f bb 40 bd d6 f7 04 bb 10 c1 16 3d
       -0.10045485 -0.04705387 -0.0020289323 0.036805212
0002c0 d3 cc b5 3a d3 f7 8a bd 91 80 4a bd 1e 7d 6d bd
       0.0013870246 -0.0678555 -0.049439017 -0.05798065
0002d0 03 bc ae bd 24 63 1e 3e 30 13 17 be f6 81 dc 3c
       -0.08531954 0.15467507 -0.14753413 0.026917439
0002e0 93 04 3c 3f e9 37 ac bc be 81 82 bd 1f 8e fa 3e
       0.7344448 -0.021022754 -0.063724026 0.48936555
0002f0 59 da d7 bc cd 1e 73 bd a8 18 79 bd 9e d6 f8 bc
       -0.026349233 -0.059355546 -0.06081453 -0.030375775
000300 3f 0e 95 bd f9 af 54 bd 24 24 90 bd 20 f8 a9 bd
       -0.07278108 -0.051925633 -0.07038143 -0.08299279
000310 a0 19 1c 3d 33 f0 88 3d 9b 95 10 be 87 6d ff bc
       0.038110375 0.06686439 -0.1411957 -0.031180156
000320 77 a6 34 be 75 99 b4 bf 6b ab b2 bd 81 74 3e 3e
       -0.17641626 -1.4109331 -0.08724102 0.1859913
000330 15 ad f5 be 41 a8 09 be cc 1d 15 be cf 19 94 bd
       -0.47983614 -0.1344309 -0.14562148 -0.07231485
000340 9c 90 b4 bc 78 78 01 3d 89 86 99 bb e7 ce c0 bc
       -0.022041611 0.03160903 -0.0046852273 -0.023536159
000350 30 97 e4 bd c3 4a 34 3d 6b 75 b4 bd 7a eb 83 bd
       -0.11161649 0.04401661 -0.08811458 -0.06441398
000360 f7 40 74 be 70 61 a8 3c ee 84 72 3e f0 a4 ee bc
       -0.23852907 0.020554274 0.23683521 -0.029131383
000370 d4 b7 a5 3e cb 98 eb bd 91 47 4e be 0b cd 00 bd
       0.32366812 -0.11503752 -0.20144488 -0.031445544
000380 ca 5a 91 3e da dd a8 bd 40 9c 97 bd 9a 47 09 bd
       0.2838958 -0.0824544 -0.07402849 -0.03351555
000390 5a c5 86 3d 56 73 eb 3b 50 8b 54 3d 10 c7 39 bd
       0.065806106 0.00718538 0.05189067 -0.045355856
0003a0 23 43 10 bd 3a a7 25 bd 4f 17 01 be 90 9a 8c bd
       -0.035220277 -0.040442683 -0.12606548 -0.06865418
0003b0 2f 9f 4e 3e 1a 6b 5e 3e 60 1f 1c 3d 72 5c 1b 3f
       0.20177911 0.21720544 0.03811586 0.60687935
0003c0 09 70 2d 3e 8f 1c 83 bd fd 39 59 3f a0 63 25 bd
       0.1693727 -0.064019315 0.8485411 -0.040378213
0003d0 5b 07 91 bc e7 32 24 bd 0b 7c 29 be 55 5f 03 3f
       -0.017703703 -0.040087607 -0.16551225 0.5131734
0003e0 4b ad 59 3f 61 27 bb 3a 3e 6a 54 bd bd 54 52 bd
       0.8503005 0.0014278704 -0.051859133 -0.051350344
0003f0 5b fe 11 bd 03 25 31 3e 24 58 9e 3d 9f b7 02 bd
       -0.035642963 0.17299275 0.07731655 -0.031913396

decoder.0.bias f4 [16]
000000 e6 3c 42 3f db 08 b7 be 25 29 15 be 9a 39 0a be
       0.75874174 -0.35748944 -0.14566477 -0.13498536
000010 62 21 7f bd f4 9c 0a be 4c c0 5c 3f 89 89 02 be
       -0.062287696 -0.13536435 0.8623092 -0.12747778
000020 4a 84 a5 be 0a 81 13 be 2e d3 e3 be 93 a2 91 be
       -0.3232749 -0.14404693 -0.44497055 -0.28444347
000030 5f b4 05 bf a4 d2 ad bd 4d 7c e0 bd 7b bf 9d bc
       -0.5222835 -0.08487442 -0.109612085 -0.019256344

decoder.2.weight f4 [16, 3, 3, 3]
000000 ed 3f 9b be fc e5 83 bf 66 a7 6a bf 17 68 d1 be
       -0.3032221 -1.0304561 -0.9166168 -0.40899727
000010 2b 63 ee bf b3 29 cb bf ea ee 84 be b5 ab 80 bf
       -1.8624014 -1.58721 -0.25963527 -1.0052401
000020 d4 5c 61 bf 13 50 b4 be f0 0b 84 bf 23 7d 62 bf
       -0.8803227 -0.35217342 -1.0316143 -0.88472193
000030 42 f3 dc be 17 ef e4 bf 40 95 c6 bf 0b 8a 9f be
       -0.4315434 -1.7885464 -1.5514297 -0.31160006
000040 1d 72 84 bf aa a5 60 bf 03 9a a4 be 16 d9 74 bf
       -1.0347325 -0.87752783 -0.32148752 -0.95643747
000050 3e b9 4d bf 6a 4b cb be da 70 cf bf 92 61 b4 bf
       -0.8036078 -0.39705974 -1.6206315 -1.4092276
000060 00 2c 90 be 15 ff 79 bf a0 c0 49 bf 04 ae 97 3d
       -0.2815857 -0.9765485 -0.7880955 0.07406238
000070 88 20 91 3e 56 7f 97 be 71 1a bd 3d 5f 79 3c 3e
       0.28345132 -0.29589337 0.09233559 0.18405674
000080 d6 f4 f2 be 4e 14 14 3e cb 03 28 3f 4e ee 19 be
       -0.4745242 0.1446087 0.6563079 -0.15032312
000090 39 60 85 3e ef 48 29 3f da 83 a4 3d e3 f0 c9 3e
       0.26049975 0.6612691 0.08032961 0.39441594
0000a0 fb 53 25 3f fb fc 49 be d0 c1 9b 3e 9e ef 6b 3f
       0.6458127 -0.1972541 0.30421305 0.921625
0000b0 0a c8 d0 3d b7 0d c1 3e 7a 88 3b 3f c6 29 ff 3d
       0.101944044 0.37705776 0.7325512 0.124591395
0000c0 45 76 e3 3e c3 c0 46 3f 3d b4 e0 bd 0a 80 01 3f
       0.4442617 0.7763788 -0.10971878 0.50586
0000d0 00 4a 88 3f 44 70 4e 3e 36 c9 0b bd 5a 53 49 bb
       1.0647583 0.20160013 -0.034127437 -0.0030719847
0000e0 14 28 37 3e 44 53 84 3b 88 e8 e1 bd 3d c6 d6 bd
       0.17886382 0.0040382463 -0.1103068 -0.1048703
0000f0 ac da 3a 3d cb 84 44 3e ae 12 cb bd db cf f3 3a
       0.045618698 0.19191281 -0.09915672 0.0018601374
000100 1f b3 d2 bc cc 20 d4 3d 22 89 19 3d 40 d6 43 3e
       -0.025720177 0.10357818 0.037484296 0.19124699
000110 eb 5f 32 3e 15 f6 ab 3c c4 cc 9a 3d 18 e9 0d 3d
       0.17419402 0.020991364 0.07558587 0.034646124
000120 db fe 25 3d de f2 b0 3d 02 56 13 3e c6 f4 46 3e
       0.040526252 0.08640073 0.14388278 0.19429311
000130 43 81 0e 3e 30 af 3a 3e 64 9c 8d 3d ea 9b 7c bd
       0.13916497 0.18230891 0.06914595 -0.06167213
000140 aa de 7f 3e f4 f2 8b 3d 14 22 0c be a4 10 1f 3c
       0.24987283 0.06833449 -0.13684875 0.009708557
000150 78 1a fe bc f1 8c fa 3d a0 ac 73 3d fe e9 7c be
       -0.03101848 0.12233914 0.0594908 -0.24698636
000160 e0 1c 33 be 35 ef 44 be e7 39 75 3d 19 3d b5 3d
       -0.17491484 -0.19231875 0.059869673 0.08849544
000170 68 b6 6a be b6 fa f6 3d 86 68 23 3d f2 2a 1e be
       -0.22921145 0.12059538 0.039894603 -0.1544607
000180 13 81 4f be e5 82 db 3d 7c 8e 96 bd 8f 1d ba 3c
       -0.20264082 0.107183255 -0.073513955 0.022719173
000190 54 7a 02 3e 49 38 34 3d 4a 6c 04 3e 83 fe 50 be
       0.12741977 0.04399899 0.12931934 -0.20409589
0001a0 04 31 7a be 1b ab 26 be 2f f8 5b bd 71 95 29 bd
       -0.2443276 -0.16276209 -0.053703483 -0.041402284
0001b0 6c 06 af 3e 13 f7 99 3e a7 36 4c 3e 83 57 d3 3f
       0.34184587 0.30071315 0.19942723 1.6511081
0001c0 f8 8c cb 3f 63 1b 65 3f 79 e0 2a 3f 4c ef f9 3e
       1.5902395 0.89494914 0.6674877 0.48815382
0001d0 0e a9 cf 3e 56 2d c4 3d c8 1c b1 bd 16 67 8c bd
       0.40558666 0.0957896 -0.08648068 -0.068555996
0001e0 74 99 88 3f c1 ba 99 3e a2 e7 eb 3e 3b 8d 0e 3f
       1.067183 0.30025294 0.4607516 0.5568425
0001f0 9f e9 f8 3d cf a1 97 3e a0 57 b6 3d 0e 51 8b be
       0.12153935 0.29615638 0.08903432 -0.27210277
000200 cf b1 90 bd dd a0 5a 3f 95 4c d1 bd b7 e9 98 3e
       -0.07065164 0.8540171 -0.10219685 0.2986581
000210 d0 bb 00 3f 1a b8 3f bc 7b a1 42 3e bb 47 10 3d
       0.5028658 -0.011701608 0.19006912 0.035224658
000220 3e 78 70 bd 22 4a 8a 3d b7 88 22 3d e2 ac 63 bd
       -0.058708422 0.06752421 0.039681163 -0.055584796
000230 a7 5e ba 3d 79 40 3d 3e 05 07 94 bd d4 bc 00 3e
       0.09100085 0.18481626 -0.07227901 0.12572032
000240 29 58 47 3e f2 84 fa 3d ca c9 ab bd 67 e5 0c be
       0.19467224 0.122323886 -0.083880976 -0.13759385
000250 08 da c6 3d d4 8c 77 3c 2f a5 d7 bd aa a0 81 3c
       0.09709555 0.01510926 -0.10529553 0.01582368
000260 82 5a 80 bd 6d 96 48 3e 3c 22 1a 3e 8b c1 eb bd
       -0.06267263 0.19588633 0.15052122 -0.11511525
000270 ff fb c0 bd a6 39 5b 3e 29 d6 90 bd d5 d6 3e bc
       -0.094230644 0.2140871 -0.07072098 -0.0116479
000280 a7 44 b3 bb 28 e0 5e 3d 5b 04 9b 3d b7 b2 40 bf
       -0.0054708305 0.05441299 0.0756919 -0.752727
000290 82 01 11 bf 54 89 18 3e 6b 13 b6 bf fb 74 a4 bf
       -0.56642926 0.14896137 -1.4224676 -1.28482
0002a0 cb a7 b5 3d 8f cf 9b bf f2 b8 56 bf f0 03 78 3c
       0.088698946 -1.2172717 -0.83875954 0.0151376575
0002b0 f4 00 47 bf 47 fe 03 bf 58 09 2a 3e 2e 50 ce bf
       -0.7773583 -0.5155987 0.16605127 -1.6118219
0002c0 10 71 a1 bf df 3e f0 3d e7 58 90 bf 03 4b 56 bf
       -1.2612629 0.11730742 -1.1277131 -0.8370821
0002d0 5c 47 cc 3c 32 75 2c bf 04 54 0b bf eb 76 26 3e
       0.02493637 -0.67366326 -0.5442507 0.16256301
0002e0 67 dd c8 bf 91 8f 98 bf 26 b4 02 3e 50 e7 8f bf
       -1.5692567 -1.1918813 0.12764034 -1.1242466
0002f0 79 b5 54 bf 84 2a 06 3d e9 3e 0b be 00 07 2a bd
       -0.83089405 0.03275539 -0.13598217 -0.041510582
000300 54 55 aa bd 12 78 56 3e d0 6b 10 be 22 9e 29 bd
       -0.08317056 0.2094424 -0.14103627 -0.041410573
000310 66 26 c3 bd 28 5d d4 bd ec 34 0b be 42 dd 0e 3e
       -0.09528808 -0.10369331 -0.13594407 0.1395159
000320 8f 7e 13 bc 8e aa 64 3d fc 58 5c 3d ba 14 a5 3d
       -0.009002342 0.055826716 0.0537958 0.08060594
000330 0e 13 cc bd 6f b5 c3 bd a0 47 f9 bd 27 0a b3 3d
       -0.09964572 -0.0955609 -0.121718645 0.08742171
000340 f6 25 44 3c 16 45 97 3d a2 b4 fa bd 38 97 9b 3d
       0.011971941 0.07386224 -0.12241484 0.07597202
000350 56 22 fb 3d 0e 2e bb bd 60 d5 be 3d 89 ee 57 3e
       0.122624084 -0.091396436 0.09318042 0.21087088
000360 32 f2 eb 3e e2 f2 ba bc f4 50 35 bc 41 34 29 3f
       0.46083218 -0.022820894 -0.011066664 0.6609536
000370 89 f5 40 be 64 b4 44 3c ed 96 ea 3e 67 31 c4 bc
       -0.18843664 0.012005899 0.45818272 -0.023949338
000380 6f 28 0a 3d 79 63 1b 3f 11 62 8f 3e be 0f 8c 3e
       0.033729967 0.6069866 0.28004506 0.2735576
000390 f0 2e 8f 3f e3 a1 48 3f bf dc e6 3e de 07 4e 3f
       1.1186199 0.7837202 0.4509029 0.80480754
0003a0 cc b9 b3 3e 55 c9 a1 3e 34 38 0e 3f 7d 58 d6 3e
       0.3510269 0.31598917 0.5555451 0.41864386
0003b0 b7 f1 95 3e eb 69 97 3f b5 43 89 3f 63 ea 15 3f
       0.29285976 1.1829199 1.0723788 0.5856077
0003c0 69 4c 43 3f 1f b5 c2 3e 78 10 9c 3e f8 79 17 3e
       0.7628847 0.3802881 0.30481315 0.14792621
0003d0 5c 33 2b bd 69 c7 ee 3c 11 1b 89 bd 5a 4e 0b 3d
       -0.041797027 0.02914782 -0.06694616 0.03401027
0003e0 61 57 a3 3c b0 92 ad 3d 61 3a 20 bc a5 74 43 bb
       0.019939126 0.08475244 -0.009779544 -0.0029824164
0003f0 02 6d b3 3d c7 8c fb 3d 6d e9 99 bd 87 b6 e4 bd
       0.08761026 0.122827105 -0.075152256 -0.11167627

decoder.2.bias f4 [3]
000000 5e e6 2e bf aa b9 20 bf 97 fd 27 bf
       -0.6832026 -0.627833 -0.6562132
