trained_models2/autoencoder_paper_lr0.001.pt (torch, 16536 bytes, 8 tensors)

encoder.0.weight f4 [16, 3, 3, 3]
0	0x3e68e1bb	0.2274236
1	0xbd5be175	-0.05368181
2	0x3e0099f4	0.12558728
3	0x3dfed1fc	0.12442395
4	0xbe567392	-0.20942524
5	0xbe54b1b2	-0.2077091
6	0x3d8a977a	0.06767173
7	0xbe19a796	-0.15005335
8	0xbe50b1e6	-0.20380363
9	0xbc37b289	-0.011212
10	0x3e02adf5	0.12761672
11	0xbdc7a08b	-0.09747418
12	0xbddbf505	-0.10740093
13	0x3dfae5dc	0.122508734
14	0xbe23accc	-0.15983886
15	0xbd01209a	-0.031525232
16	0xbe4aad59	-0.1979269
17	0xbd2030b4	-0.039108947
18	0x3e6ebb7d	0.23313709
19	0x3d68b586	0.05681374
20	0xbe1bb1f7	-0.15204607
21	0x3e2fbe8b	0.1716253
22	0xbc84f424	-0.016229697
23	0xbddc798f	-0.10765373
24	0x3e3e1b47	0.18565093
25	0x3d9d3f26	0.0767806
26	0xbc02fe39	-0.007995182
27	0xbd0391a0	-0.0321213
28	0x3d7e5808	0.062095672
29	0x3e75a53f	0.23988818
30	0xbe4ba3dd	-0.19886728
31	0xbdd35ce9	-0.103204556
32	0x3e7e226c	0.24817818
33	0xbcf6abdc	-0.030111246
34	0xbe6ef53f	-0.23335741
35	0x3e6742ec	0.22584122
36	0x3dafc1be	0.08581875
37	0x3dfabf46	0.12243514
38	0x3e948b2b	0.29012427
39	0xbe675c6a	-0.22593847
40	0xbe30c1ac	-0.1726138
41	0x3e4c2db6	0.19939312
42	0xbe47f9a7	-0.19528829
43	0xbde566c6	-0.11201243
44	0x3e805a19	0.2506874
45	0xbe3c5b0b	-0.18394105
46	0xbce923cb	-0.02845945
47	0x3e04cd93	0.12969045
48	0x3dbd644e	0.09247647
49	0xbe41cdd4	-0.18926173
50	0x3e162870	0.14663863
51	0xbe2e6327	-0.17030011
52	0xbe376467	-0.17909394
53	0x3d0a795e	0.03380715
54	0x3e38e749	0.18056978
55	0xbd9e7996	-0.077380344
56	0x3e31b750	0.17355084
57	0x3e32df37	0.17467962
58	0x3c96f838	0.018428907
59	0x3d5d940b	0.054096263
60	0xbd13aeca	-0.036055364
61	0x3dc3d13e	0.09561394
62	0x3dd31174	0.10306063
63	0x3e808ad9	0.25105932
64	0x3e67e1c7	0.22644721
65	0xbd098cd6	-0.033581577
66	0x3e5431a8	0.20722067
67	0x3e162849	0.14663805
68	0x3e89ef3e	0.2694034
69	0x3e2258da	0.15854207
70	0x3e464d07	0.19365321
71	0xba546bf8	-0.0008103247
72	0x3ce70d75	0.028204659
73	0xbb8456dc	-0.0040386748
74	0x3dcaab54	0.098959595
75	0x3e9352e7	0.28774187
76	0x3e1f92e9	0.15583386
77	0x3e44f643	0.19234566
78	0x3e919248	0.28431916
79	0x3e0a5152	0.13507584
80	0x3e47510d	0.19464512
81	0x3e263799	0.16232146
82	0x3e213f5b	0.15746824
83	0xbd313b98	-0.043269724
84	0x3e8ea1f3	0.27857932
85	0x3e9c4ac9	0.30525807
86	0x3e0d6d2b	0.13811176
87	0xbd6308dc	-0.05542837
88	0x3e11419c	0.14185184
89	0xbd828193	-0.063723706
90	0x3e8586ca	0.26079398
91	0x3c9d6e53	0.019217646
92	0x3de1b5a1	0.11020971
93	0xbd667b2b	-0.056269806
94	0x3e7dca15	0.2478412
95	0x3df0d1ec	0.117587894
96	0x3e3ceaac	0.18448895
97	0x3db977a3	0.09056022
98	0x3e1e1e74	0.15441304
99	0xbd992289	-0.0747729
100	0xbd935fa5	-0.07195977
101	0xbe02efb0	-0.12786746
102	0xbce317e5	-0.027721355
103	0x3e8e2862	0.27765185
104	0x3e0fe657	0.14052711
105	0x3e33a7c8	0.17544472
106	0x3e4bad74	0.19890386
107	0x3d8bf73f	0.06834268
108	0x3dbe838a	0.09302433
109	0xbe2ee87b	-0.17080872
110	0x3e111250	0.14167142
111	0xbe02dd72	-0.12779787
112	0xbd9f7d37	-0.07787555
113	0xbe08bc92	-0.13353184
114	0x3e3ec9d8	0.18631685
115	0x3ac1e1aa	0.0014791985
116	0x3e6d485d	0.23172136
117	0xbe0c72d2	-0.13715675
118	0x3d839106	0.064241454
119	0x3e41ffc9	0.1894523
120	0xbe5618f0	-0.2090795
121	0x3d315b38	0.043299884
122	0xbcce6e54	-0.025199093
123	0x3d09647c	0.033543095
124	0xbde6620b	-0.11249169
125	0xbd8c71af	-0.06857621
126	0x3d5164d6	0.051121555
127	0xbe3d167c	-0.18465608
128	0x3dd5f118	0.104463756
129	0x3dc357e3	0.095382474
130	0x3d3630be	0.044480078
131	0x3d83b6f1	0.06431378
132	0x3d44e214	0.048067167
133	0xbdc4bcfe	-0.0960636
134	0x3c669357	0.0140732145
135	0xbd03db99	-0.032191847
136	0xbdd18d0c	-0.10231981
137	0x3d999610	0.07499325
138	0x3dbd75d0	0.092509866
139	0xbc669a4b	-0.014074872
140	0x3d9ee441	0.0775838
141	0x3ddd9c6f	0.10820853
142	0xbe07f43c	-0.13276762
143	0xbd9ca9cd	-0.076495744
144	0xbda3041d	-0.07959769
145	0x3e0c508e	0.13702604
146	0x3d822233	0.06354179
147	0x3e348045	0.17627056
148	0xbe0a414e	-0.13501474
149	0xbd6374c9	-0.055531297
150	0xbe262621	-0.16225483
151	0xbc03cefe	-0.008044956
152	0x3d53b1ae	0.05168312
153	0x3e1f3ea3	0.15551238
154	0x3c3eed8f	0.011653318
155	0xbd1c765d	-0.038198818
156	0xbe3a155c	-0.1817221
157	0xbd1597fb	-0.036521893
158	0x3e1d4ff1	0.15362526
159	0xbd3a0d68	-0.04542294
160	0x3d4b9ee5	0.04971208
161	0x3dc71ca1	0.097222574
162	0x3c91df2e	0.017806616
163	0x3dd9f970	0.106432796
164	0x3e8b6920	0.27228642
165	0x3e03a06c	0.12854165
166	0x3e091fc0	0.13391018
167	0x3e6d68a6	0.23184451
168	0x3d66f4cb	0.056385797
169	0xbd62dbd1	-0.055385415
170	0x3cf7c056	0.03024308
171	0x3de57b5e	0.11205171
172	0x3d2643bb	0.040591937
173	0x3e361f0a	0.17785278
174	0xbc76fe4d	-0.0150752785
175	0x3e96adbc	0.29429424
176	0x3df66133	0.12030258
177	0x3e47d121	0.1951337
178	0x3bdf989d	0.006823613
179	0x3e170380	0.14747429
180	0x3e41f13f	0.18939684
181	0x3c86bcdd	0.016447479
182	0x3e87bcbc	0.2651118
183	0xbd105453	-0.035236668
184	0x3e0bed8a	0.13664833
185	0x3df455d6	0.119304344
186	0x3d251673	0.040304612
187	0x3e4dea7a	0.20108977
188	0x3e46b2ee	0.19404194
189	0x3da2f274	0.079564005
190	0x3dec6bfb	0.11544033
191	0xbe06da01	-0.131691
192	0x3ea15ebd	0.31517592
193	0xbd93a66f	-0.07209479
194	0xbe933700	-0.287529
195	0x3e77d794	0.2420333
196	0xbe71058b	-0.2353727
197	0xbdfa18c4	-0.12211755
198	0x3e910eb0	0.28331518
199	0xbd48cb54	-0.049022034
200	0x3d6cb8a5	0.05779328
201	0x3df48d73	0.11941042
202	0xbe51796c	-0.20456475
203	0xbe8900a6	-0.26758307
204	0x3e8689db	0.2627705
205	0xbe29657e	-0.16542622
206	0xbea230cb	-0.3167785
207	0x3ebb1239	0.3653734
208	0xbe360c08	-0.17778027
209	0x3c47759a	0.0121740345
210	0x3eaec5f6	0.34135407
211	0x3e08012e	0.132817
212	0xbc0513b3	-0.008122372
213	0x3b21e3d6	0.0024702451
214	0xbbf38191	-0.007431217
215	0xbe867880	-0.2626381
216	0x3e85c5be	0.26127428
217	0xbd8642d1	-0.06555713
218	0xbcd519be	-0.026013251
219	0x3dac9a71	0.08427895
220	0x3e244a43	0.16043954
221	0x3e9ca17d	0.30591956
222	0x3c8e70b9	0.017387735
223	0x3e832c56	0.25619763
224	0x3dac215e	0.08404802
225	0xbdb3c808	-0.08778387
226	0xbd90c32e	-0.070684776
227	0x3d93e6fc	0.07221791
228	0x3e32081c	0.17385906
229	0x3d9a32a5	0.07529191
230	0x3e04cced	0.12968798
231	0x3de74ae1	0.11293579
232	0x3ddb7fda	0.10717745
233	0xbdb7174c	-0.089399904
234	0x3df38ebe	0.1189246
235	0x3e8e9063	0.27844533
236	0x3e3d846b	0.18507545
237	0x3e7a9d8e	0.24474165
238	0x3dc035a9	0.09385235
239	0x3e52cc35	0.20585711
240	0xbde06a3e	-0.10957764
241	0x3e5a5b2d	0.21323843
242	0x3e537745	0.20650966
243	0x3eb41d7c	0.35178745
244	0x3e1d808a	0.15381065
245	0x3e516dec	0.20452088
246	0x3e892e5a	0.26793176
247	0x3e7b9f3f	0.24572466
248	0xbcb2cf27	-0.021827294
249	0x3eb60e76	0.35557908
250	0x3d0f265b	0.034948688
251	0xbd9c0da1	-0.07619787
252	0x3e78cfaa	0.24297968
253	0x3e0d3da2	0.13793042
254	0x3c5b4597	0.013383291
255	0x3e9ba37e	0.30398172

encoder.0.bias f4 [16]
0	0x3e60bb63	0.21946482
1	0x3ecae649	0.3962882
2	0xbc5a49fe	-0.013323305
3	0xbd65aa3e	-0.05607056
4	0x3e9e3731	0.30901483
5	0x3e9594e6	0.29215163
6	0x3df5323b	0.11972471
7	0xbc7eb9ca	-0.015547225
8	0xbdd5b706	-0.104352996
9	0x392f9af9	0.00016747032
10	0xbe363fbf	-0.17797755
11	0x3e917409	0.2840884
12	0x3ea35a61	0.3190489
13	0xbdd1fb0f	-0.10252964
14	0xbcdc176b	-0.026866635
15	0x3e566ffe	0.20941159

encoder.2.weight f4 [8, 16, 3, 3]
0	0x3e5fcd8e	0.21855757
1	0x3e239a0f	0.15976737
2	0x3e4b392d	0.1984603
3	0x3e5759f9	0.21030416
4	0x3e9658b2	0.29364544
5	0x3e15abb3	0.1461628
6	0x3e23ec6a	0.16008154
7	0x3e56f7da	0.20992985
8	0x3df11c9d	0.11773036
9	0x3e149113	0.14508466
10	0x3e795273	0.24347858
11	0x3e3c15d3	0.183677
12	0x3e179916	0.14804491
13	0x3ddbc335	0.10730592
14	0x3e2e7f9a	0.17040864
15	0x3d8eaf81	0.069670685
16	0x3e53655c	0.20644134
17	0x3e3a1fcb	0.1817619
18	0xbc2118b1	-0.009832547
19	0xbda2ee3b	-0.07955595
20	0xbcddaf72	-0.027061198
21	0xbd8d61bf	-0.06903409
22	0xbe3bf4ed	-0.1835515
23	0xbde01526	-0.10941534
24	0x3d813308	0.063085616
25	0xbda7594f	-0.08171331
26	0x3db3353a	0.087503865
27	0xbd0eda6c	-0.034876272
28	0xbd4e5995	-0.0503784
29	0x3d3abe42	0.0455916
30	0xbdf91256	-0.121617004
31	0xbd216eef	-0.039412435
32	0xbdea1a80	-0.11430836
33	0x3dd8118b	0.10550221
34	0x3d1e45c3	0.03864075
35	0x3d841132	0.06448592
36	0x3e0ef847	0.13961898
37	0x3e5ee670	0.21767592
38	0x3e52e26b	0.20594184
39	0x3df735d6	0.12070815
40	0x3e4c30f7	0.19940554
41	0x3e106ee3	0.141048
42	0x3e593dea	0.21215025
43	0x3e23794c	0.1596424
44	0x3e822956	0.25422162
45	0x3de81b93	0.11333384
46	0x3e80763a	0.250902
47	0x3e887a45	0.26655784
48	0x3dcf0e48	0.10110146
49	0x3de4a744	0.11164716
50	0x3e216a3f	0.15763186
51	0x3e0bc4fa	0.1364936
52	0x3e741812	0.23837307
53	0x3e6d0bf9	0.23149098
54	0x3d44cb1c	0.048045263
55	0x3d294e6f	0.041334566
56	0x3db2e001	0.087341316
57	0xbc15efd7	-0.009151421
58	0xbd5acfe4	-0.053420916
59	0x3e08aadf	0.13346432
60	0x3ddb544e	0.10709439
61	0x3bde532c	0.006784817
62	0x3db2340f	0.08701336
63	0x3dd8dc17	0.10588854
64	0x3eaab472	0.33340794
65	0xbe2cdb23	-0.16880469
66	0x3d2cda1c	0.042200193
67	0x3eb4f0c5	0.35339943
68	0xbe28aef3	-0.16472988
69	0x3d9d111e	0.076692805
70	0x3e0ff402	0.14057925
71	0xbe5512e5	-0.20807989
72	0xbd4ef68d	-0.050528098
73	0xbd38b3ed	-0.045093466
74	0x3be38acf	0.0069440375
75	0xbd71a4f9	-0.05899522
76	0xbe30d676	-0.1726931
77	0xbc756b56	-0.014979204
78	0x3d15eeea	0.0366048
79	0xbdfd17ad	-0.123580314
80	0xbcf071ab	-0.029351076
81	0x3e039084	0.12848097
82	0x3d564723	0.052313935
83	0xbe4d9529	-0.20076431
84	0x3d4d178b	0.05007128
85	0xbd2985d9	-0.041387413
86	0xbdfa6a56	-0.12227313
87	0x3e1741d8	0.14771211
88	0x3e09988a	0.13437095
89	0xbe04303d	-0.12909026
90	0x3d435d26	0.047696255
91	0xbcfc7c52	-0.030821
92	0xbe0dab19	-0.138348
93	0xbbadd902	-0.0053054104
94	0xbd72b033	-0.059250068
95	0xbe67d223	-0.22638755
96	0x3cc28cf4	0.023748852
97	0xbe072e42	-0.1320124
98	0xbe054cf9	-0.13017644
99	0x3e0e920d	0.13922901
100	0x3e1434c7	0.14473258
101	0x3decb642	0.115582004
102	0x3da77e7b	0.08178421
103	0x3e4ae4fb	0.19813912
104	0x3e1926f9	0.14956273
105	0x3e5c09a5	0.21488054
106	0x3e185c82	0.14879039
107	0x3e78e954	0.24307758
108	0x3e12a4e8	0.14320719
109	0x3e3aa221	0.1822591
110	0x3e52a8c9	0.20572199
111	0x3dd63798	0.104598224
112	0x3e520161	0.20508339
113	0x3e0f9f75	0.14025672
114	0x3e4bac61	0.19889976
115	0x3e5eb7d9	0.2174982
116	0x3e636ecf	0.22210239
117	0x3c03a6b0	0.008035347
118	0xbdb99b5f	-0.09062838
119	0xbdcac99e	-0.09901737
120	0xbd2fdca5	-0.042935032
121	0xbdc69ace	-0.096974954
122	0xbe0b7140	-0.1361742
123	0x3e13ce75	0.14434226
124	0xbda8559e	-0.08219455
125	0x3b810d7d	0.0039383755
126	0x3e160728	0.14651167
127	0xbe1949cf	-0.14969562
128	0x3d5e7bee	0.054317407
129	0x3da3ecb8	0.08004135
130	0xbdc6e2d7	-0.09711235
131	0xbd3af4fa	-0.045643784
132	0x3c35008c	0.011047494
133	0xbd88609e	-0.06659053
134	0x3d129087	0.035782363
135	0x3e1abed1	0.15111853
136	0x3e3d2ed1	0.1847489
137	0x3e8bbb12	0.2729116
138	0x3e7af731	0.24508359
139	0x3e49bef6	0.19701752
140	0x3e03e549	0.12880434
141	0x3de37bc8	0.11107594
142	0x3e79b33d	0.2438478
143	0x3e931c73	0.28732643
144	0x3e3dd923	0.18539862
145	0x3e1d69d3	0.153724
146	0x3e894284	0.2680856
147	0x3e0229a5	0.12711199
148	0x3e4bf7bf	0.19918726
149	0x3e44a760	0.19204473
150	0x3df81917	0.121141605
151	0x3e25be5f	0.16185902
152	0x3dcd1452	0.100136414
153	0x3e14c83f	0.14529513
154	0x3d9a6afc	0.07539937
155	0x3e447111	0.19183756
156	0x3e0e82d3	0.13917093
157	0x3e543a93	0.2072547
158	0x3e4c2168	0.19934618
159	0x3d887f6a	0.06664927
160	0x3dac2f8f	0.084075086
161	0x3dd77775	0.105208315
162	0xbd158a17	-0.036508646
163	0xbbb1502f	-0.00541117
164	0x3d213569	0.039357577
165	0xbda0cbd4	-0.07851377
166	0xbe0bf574	-0.13667852
167	0x3cbd3340	0.023095727
168	0x3c501582	0.01270044
169	0xbdc496d2	-0.09599079
170	0x3b8bd260	0.004267022
171	0x3c97fa81	0.018552067
172	0xbe09cc2c	-0.13456792
173	0x3d0d7dc8	0.034543782
174	0xbd8952cc	-0.067052454
175	0xbe3539ab	-0.1769778
176	0xbd341442	-0.04396463
177	0xbcd8aed5	-0.026450554
178	0xbdcd60f2	-0.100282565
179	0xbd49ef99	-0.049300764
180	0x3e349afd	0.17637248
181	0x3e1cfce8	0.15330851
182	0x3e6e94a1	0.23298885
183	0x3de112a6	0.10989885
184	0x3e336ba5	0.17521532
185	0x3dc33550	0.09531653
186	0x3e3c1107	0.1836587
187	0x3da7bd9e	0.081904635
188	0x3e882b51	0.26595548
189	0x3e068aa4	0.13138825
190	0x3e3b2252	0.18274811
191	0x3df6352c	0.120218605
192	0x3e3dc8d8	0.18533647
193	0x3dbfda0e	0.093677625
194	0x3e6d336a	0.23164144
195	0x3e600f52	0.21880844
196	0x3e1e1a8a	0.15439811
197	0x3e860a79	0.26179865
198	0x3dd6e193	0.104922436
199	0x3da44442	0.08020832
200	0x3d714871	0.058906976
201	0xbd1d27de	-0.0383681
202	0xbce1ceb0	-0.027564377
203	0x3df4207b	0.11920258
204	0x3db67724	0.08909443
205	0xbb2e8fd4	-0.0026636021
206	0x3bba005f	0.005676314
207	0x3d8e48ec	0.069475025
208	0x3e84d8bf	0.25946614
209	0xbdce6aa8	-0.10078937
210	0x3d657db4	0.056028083
211	0x3e9ae431	0.3025222
212	0xbdb35a9f	-0.08757519
213	0x3dba2237	0.09088557
214	0x3e0a8b25	0.13529642
215	0xbe9549d9	-0.29157904
216	0xbd1bb99e	-0.038018815
217	0xbc351fe9	-0.011054971
218	0x3d9a0b1c	0.0752165
219	0xbdb8ffbd	-0.09033153
220	0xbd8b9752	-0.068159714
221	0xbda9860f	-0.08277523
222	0xbd21472d	-0.03937452
223	0xbe0c6da3	-0.13713698
224	0x3c166004	0.009178165
225	0x3dde0c9a	0.10842247
226	0x3e0b3385	0.13593872
227	0xbe142e5c	-0.1447081
228	0x3e103dc6	0.14086065
229	0xbd5d6b1e	-0.054057233
230	0xbde83d27	-0.11339789
231	0x3dab7f32	0.0837387
232	0x3da05800	0.07829285
233	0xbdb19c07	-0.08672338
234	0x3d472bee	0.04862588
235	0xba70aef4	-0.00091813435
236	0xbd289adf	-0.04116332
237	0xbc1f0aa2	-0.009707125
238	0xbe3b27ab	-0.18276851
239	0xbe4e9250	-0.20173001
240	0x3da3a93d	0.07991264
241	0x3c154482	0.009110572
242	0xbcc3f221	-0.023919167
243	0x3cfe7d82	0.031065706
244	0x3e1ad353	0.15119676
245	0x3da9ab89	0.08284671
246	0x3e58784c	0.2113964
247	0x3dcba688	0.09943873
248	0x3e5e3877	0.21701227
249	0x3e1321d7	0.14368378
250	0x3e33a1ff	0.17542265
251	0x3e5cc4e9	0.2155949
252	0x3e37c071	0.17944504
253	0x3e559d26	0.20860729
254	0x3ded40e3	0.11584642
255	0x3e1bc977	0.15213571

encoder.2.bias f4 [8]
0	0x3e2c4899	0.16824569
1	0x3e306734	0.17226869
2	0xbdcfbb6d	-0.101431705
3	0xbda4a8f1	-0.080400355
4	0xbdcdd1a8	-0.100497544
5	0xbe1e6fbf	-0.15472315
6	0x3e05085d	0.12991472
7	0x3df00777	0.11720174

decoder.0.weight f4 [8, 16, 3, 3]
0	0x3d71e020	0.059051633
1	0x3e5351c2	0.20636657
2	0x3e209012	0.15679958
3	0x3e3485da	0.17629185
4	0x3e885d16	0.2663352
5	0x3e0cd98b	0.13754861
6	0x3e492e20	0.19646502
7	0x3e30ee80	0.1727848
8	0x3e6923ae	0.22767517
9	0xbd2c153e	-0.042012446
10	0xbd82ecb5	-0.063928045
11	0xbe03789f	-0.12838982
12	0xbc59c81b	-0.013292338
13	0xbe5777ee	-0.21041843
14	0xbe34c4fe	-0.17653272
15	0xbc655e50	-0.013999537
16	0xbe035c7f	-0.12828253
17	0xbe4a76dc	-0.19771904
18	0x3df6990f	0.12040912
19	0x3e5d2b3b	0.21598522
20	0x3e160574	0.14650518
21	0x3d9e708c	0.0773631
22	0x3e6ff1c2	0.23432067
23	0x3e781746	0.24227628
24	0x3d0c1550	0.034200013
25	0x3e17e819	0.14834632
26	0x3e3431e5	0.17597158
27	0x3e3dd5ad	0.18538542
28	0xbdc3bf49	-0.09557969
29	0xbd47316e	-0.048631124
30	0xbd421186	-0.047379993
31	0xbe5bc672	-0.2146242
32	0x3c333321	0.010937483
33	0x3d859fc5	0.06524614
34	0xbdcd1779	-0.10014243
35	0xbce5e5e5	-0.028063724
36	0xbc212ed1	-0.009837822
37	0xbd316f36	-0.04331895
38	0xbe2ebb37	-0.17063604
39	0xbd7169ee	-0.058938913
40	0xbe6caa71	-0.23111893
41	0xbe942f05	-0.28942123
42	0xbd729ac2	-0.05922962
43	0xbe54694e	-0.20743296
44	0xbdba7c87	-0.09105783
45	0x3c799ddd	0.015235391
46	0x3df46552	0.11933388
47	0x3e47a311	0.19495799
48	0x3e3628ef	0.17789052
49	0x3e6b1c2b	0.22959964
50	0x3e7b0a95	0.24515755
51	0x3d6ce82c	0.057838604
52	0x3dfc0dce	0.123073205
53	0x3e443bb8	0.19163406
54	0xbd817dc7	-0.06322818
55	0x3e5f507c	0.21808046
56	0x3e50ef48	0.20403779
57	0xbdc19cef	-0.09453761
58	0x3e2df0e7	0.16986428
59	0x3e8ebf9d	0.27880564
60	0x3d05eb80	0.032695293
61	0x3e623fca	0.22094646
62	0x3e237ad7	0.15964828
63	0x3e2c2db2	0.16814306
64	0x3e5f92fd	0.21833415
65	0x3e09abef	0.13444494
66	0x3e437745	0.19088466
67	0xbd3fd2a5	-0.046831746
68	0x3e86e7f8	0.26348853
69	0x3d767919	0.06017408
70	0x3d4b09bb	0.049569827
71	0x3e688d4d	0.22710152
72	0xba207cab	-0.00061220926
73	0xbdc212fc	-0.09476277
74	0x3c19cc0b	0.009387027
75	0xbd474be7	-0.04865637
76	0xbd7d6ebc	-0.061873183
77	0xbe3e9116	-0.18610033
78	0x3c9ec43b	0.01938068
79	0xbda32af0	-0.07967174
80	0x3bb9d42a	0.005671044
81	0xbd76e62c	-0.060278103
82	0xbe0bf373	-0.13667087
83	0xbde9085e	-0.11378549
84	0xbc0e5aff	-0.008688687
85	0xbcb80a9b	-0.022465995
86	0xbd8beb4a	-0.06831987
87	0xbde75534	-0.11295548
88	0xbcae4773	-0.021274304
89	0xbd645580	-0.0557456
90	0x3c45aa67	0.012064553
91	0x3e689729	0.22713913
92	0xbdae0fc6	-0.08499102
93	0x3df30ec4	0.11868051
94	0x3e760c46	0.2402812
95	0x3debc8fe	0.115129456
96	0x3aed4c39	0.0018104381
97	0x3e84060f	0.25785872
98	0xbc94a7aa	-0.018146355
99	0xbd8a373e	-0.06748818
100	0xbd6c67cf	-0.057716187
101	0xbd2d0fe7	-0.042251494
102	0xbd3cca3f	-0.046091314
103	0xbd234b0f	-0.039866503
104	0xbdf313a9	-0.11868984
105	0xbd3067ef	-0.04306787
106	0xbc52c3da	-0.012864077
107	0xbe03bdc6	-0.12865362
108	0x3c3ef36b	0.011654715
109	0xbd54208b	-0.051788848
110	0x3e55e1dc	0.2088694
111	0x3e50d40e	0.20393392
112	0x3e5f41fc	0.21802515
113	0x3e862d70	0.2620654
114	0x398ba952	0.000266383
115	0xbd43b92e	-0.047784023
116	0x3e0bd8b8	0.1365689
117	0x3e447758	0.19186151
118	0xbe23c992	-0.15994862
119	0xbdb88efb	-0.09011646
120	0xbd14802c	-0.036255047
121	0xbdeaf50c	-0.1147252
122	0xbe1b860a	-0.1518785
123	0x3df31034	0.11868325
124	0xbdec6860	-0.115433455
125	0xbdee61e9	-0.11639769
126	0xbda74f56	-0.08169429
127	0xbe820038	-0.25390792
128	0xbce0f740	-0.027461648
129	0xbc3ff587	-0.011716253
130	0xbe81b831	-0.2533584
131	0xbd83ab0f	-0.06429111
132	0xbd904078	-0.070435464
133	0xbe1773ca	-0.14790264
134	0xbdf84f12	-0.121244565
135	0x3da44bdc	0.080222815
136	0x3dca93b8	0.09891456
137	0x3e09c855	0.13455327
138	0x3da132fc	0.078710526
139	0x3e8b7592	0.27238137
140	0x3e9ed215	0.31019655
141	0x3e122ea5	0.14275606
142	0x3e7037a4	0.23458725
143	0x3e75dcf7	0.24010073
144	0x3d42c86e	0.047554426
145	0x3db3657b	0.0875959
146	0x3e0eb10c	0.13934726
147	0x3e4eb44f	0.2018597
148	0x3e8a5e0d	0.2702488
149	0x3e4be767	0.19912492
150	0x3db770a0	0.089570284
151	0x3e52dc1f	0.20591782
152	0x3df8af4e	0.12142812
153	0xbddff32f	-0.109350555
154	0xbe0c2bc1	-0.13688566
155	0xbddf6b11	-0.10909093
156	0xbde7c2dd	-0.11316464
157	0xbe2b2c4e	-0.1671612
158	0xbe53bca2	-0.20677426
159	0xbe06a6cc	-0.13149565
160	0xbe3bfd60	-0.18358374
161	0xbe3a0b7c	-0.18168443
162	0x3ccb34fd	0.02480554
163	0x3d71a1e4	0.05899228
164	0x3e70563e	0.23470399
165	0x3e277355	0.1635259
166	0x3e835a34	0.25654757
167	0x3e31a21f	0.17347
168	0x3d043b7c	0.03228329
169	0x3e568b6d	0.20951624
170	0x3e5ccb2b	0.21561877
171	0x3e821e87	0.25413916
172	0xbdb39660	-0.08768916
173	0x3cd2a5d1	0.025713833
174	0xbce2d7cb	-0.027690789
175	0xbd9753cf	-0.07389032
176	0xbcff9016	-0.031196635
177	0x3e46f30f	0.19428657
178	0xbdd0ea19	-0.102009006
179	0xbd0f6c4b	-0.035015386
180	0xbd752208	-0.059846908
181	0xbdb20e0c	-0.086940855
182	0xbd8e48cb	-0.06947478
183	0xbda468eb	-0.08027824
184	0xbe968fbb	-0.29406533
185	0xbe77d170	-0.24200988
186	0xbd645141	-0.055741552
187	0xbe1d7887	-0.15378009
188	0xbe3d22c1	-0.18470289
189	0x3d9f5f88	0.07781893
190	0x3d9fc932	0.07802047
191	0x3e269f5c	0.16271728
192	0x3ddfed3b	0.1093392
193	0x3e402ece	0.18767855
194	0x3e527653	0.2055295
195	0x3e0523be	0.13001916
196	0x3dfe3df1	0.12414158
197	0x3e24cc51	0.16093566
198	0x3d5ad1cd	0.053422738
199	0x3e54342a	0.20723024
200	0x3d5ecf1a	0.054396726
201	0xbbaa600e	-0.005199439
202	0x3e7211a6	0.23639545
203	0x3ea1f832	0.3163467
204	0x3da4aa3f	0.08040284
205	0x3de7e3ef	0.11322772
206	0x3e46f88e	0.19430754
207	0x3de10e8d	0.109891035
208	0x3da84604	0.082164794
209	0x3e63b77a	0.2223796
210	0x3e3d8f00	0.18511581
211	0xbda278dd	-0.07933209
212	0x3e815605	0.2526094
213	0x3dd1abba	0.10237832
214	0x3d7542a6	0.059878014
215	0x3e024b5a	0.12724057
216	0xbd4b66a0	-0.049658418
217	0xbd5c25fb	-0.05374716
218	0x3d2699d8	0.04067406
219	0xbc9df3c6	-0.01928128
220	0x3c862833	0.01637659
221	0xbe5d8105	-0.21631248
222	0x3ca7f0f6	0.020500641
223	0xbe4d76bf	-0.2006483
224	0xbdbc5d54	-0.091974884
225	0x3c65fc8e	0.0140372645
226	0xbe01ba6e	-0.12668774
227	0xbc24c430	-0.01005654
228	0xbb5b99f0	-0.0033508502
229	0x3ac6d200	0.0015168786
230	0xbc16e2a9	-0.009209313
231	0xbc892c84	-0.01674486
232	0xbd41e091	-0.047333304
233	0xbe2b1f23	-0.16711096
234	0xbd875a2d	-0.066089965
235	0x3e890457	0.26761124
236	0x3d4189d5	0.047250587
237	0x3ce7d30c	0.028298877
238	0x3e733008	0.23748791
239	0x3e1d12e6	0.1533924
240	0xbccb4246	-0.024811875
241	0x3e4bb322	0.19892552
242	0xbd14d506	-0.036335967
243	0xbdaeee3b	-0.085415326
244	0xbe035aea	-0.1282765
245	0xbdf05cfd	-0.11736486
246	0xbe160007	-0.14648448
247	0x3d6a6206	0.05722239
248	0xbe0d7a2f	-0.1381614
249	0x3bd209e0	0.0064098686
250	0xbe137990	-0.14401841
251	0xbde21c89	-0.11040599
252	0xbd010bae	-0.03150528
253	0x3d899d8f	0.06719505
254	0x3de45930	0.11149824
255	0x3d57504b	0.052566808

decoder.0.bias f4 [16]
0	0x3e68bce5	0.22728308
1	0x3e1765d6	0.14784941
2	0x3e9c2348	0.30495667
3	0x3e15d80c	0.14633197
4	0x3e721da5	0.23644121
5	0x3e51d611	0.20491816
6	0x3e26f903	0.16305928
7	0x3e3adaf8	0.18247592
8	0x3e1668e7	0.14688455
9	0xba885399	-0.0010400891
10	0x3e1799be	0.14804742
11	0x3da3c95f	0.07997393
12	0x3e35fe0b	0.17772691
13	0x3df9f314	0.122045666
14	0x3e3eede2	0.18645433
15	0x3e73cfae	0.23809692

decoder.2.weight f4 [16, 3, 3, 3]
0	0x3e127bcc	0.14305037
1	0xbeab40eb	-0.33447966
2	0xbe580499	-0.21095504
3	0xbd31c555	-0.04340108
4	0xbe79eed0	-0.24407506
5	0xbeeb5221	-0.45961097
6	0xbd4ac873	-0.04950757
7	0xbecca678	-0.39970756
8	0xbd816437	-0.063179426
9	0xbe1753f6	-0.14778122
10	0xbe4baada	-0.19889393
11	0xbe93f151	-0.28895047
12	0xbd0b4bee	-0.03400796
13	0xbe7e472b	-0.24831836
14	0xbe9d3e2d	-0.307115
15	0xbd934956	-0.07191722
16	0xbea6df54	-0.3259226
17	0xbe246baf	-0.16056703
18	0x3c610e13	0.013736266
19	0xbe6f8f0b	-0.2339441
20	0xbe986f33	-0.29772338
21	0xbe692416	-0.22767672
22	0xbebc389a	-0.36761934
23	0xbe8a32c9	-0.2699187
24	0xbc250993	-0.010073083
25	0xbe29a17c	-0.16565508
26	0xbe53162b	-0.20613925
27	0x3d957813	0.07298293
28	0x3dbe6bb8	0.092978895
29	0xbe08b93d	-0.13351913
30	0x3dbabd3e	0.09118126
31	0x3ea6e4de	0.32596487
32	0x3e1fce33	0.15606003
33	0x3dc561c6	0.096377894
34	0x3e855e2f	0.2604842
35	0xbdb51b64	-0.08843115
36	0xbcb85dfb	-0.02250575
37	0x3d778a3d	0.06043457
38	0x3d0509ea	0.032480158
39	0x3e81f33d	0.2538089
40	0x3ec59d15	0.38596407
41	0x3e83c75e	0.25738043
42	0x3e57fb6a	0.21092
43	0x3e869a1b	0.26289448
44	0xbe11807f	-0.14209174
45	0x3d68c718	0.056830496
46	0x3cd9b7c3	0.026576882
47	0xbe0df336	-0.13862309
48	0x3ea4216c	0.3205675
49	0x3e5c642e	0.2152259
50	0x3e85c5a0	0.26127338
51	0x3d5e9184	0.054337993
52	0x3ea19081	0.3155556
53	0xbc63439b	-0.013871099
54	0x3cbe58e7	0.023235751
55	0xbe78e928	-0.24307692
56	0xbe01bc22	-0.12669423
57	0xbdabd62e	-0.08390461
58	0xbecd1afb	-0.40059647
59	0xbe581116	-0.21100268
60	0x3b04c165	0.0020256874
61	0xbddf89a6	-0.10914926
62	0xbe91027c	-0.28322208
63	0xbd4475cd	-0.047963906
64	0xbe76701c	-0.24066204
65	0xbe2941e4	-0.16529042
66	0xbddcbe33	-0.10778465
67	0xbf1330f8	-0.57496595
68	0xbec4aa64	-0.38411248
69	0xbd50e373	-0.050998162
70	0xbea6cbad	-0.32577267
71	0xbe056e8c	-0.13030452
72	0x3e863b20	0.26216984
73	0xbe1b15e7	-0.15145074
74	0x3c3746d4	0.01118632
75	0xbd599921	-0.05312455
76	0xbf181c89	-0.5941854
77	0xbecefdea	-0.40428096
78	0xbd101e98	-0.035185426
79	0xbe18bc33	-0.14915542
80	0xbdfe5a1a	-0.12419529
81	0x3e1e633f	0.15467547
82	0x3e8c4588	0.27396798
83	0x3d838aaa	0.064229324
84	0x3ea64086	0.32471102
85	0x3e27935d	0.16364808
86	0x3d25b590	0.040456355
87	0x3e231158	0.15924585
88	0x3e6c79cd	0.23093338
89	0x3e67684d	0.22598381
90	0x3eaaaf0b	0.33336672
91	0x3e4eabc9	0.20182718
92	0x3e2426ac	0.16030377
93	0x3e1845d8	0.14870393
94	0x3dfb6a8f	0.12276184
95	0x3df62909	0.120195456
96	0x3e80ef02	0.25182348
97	0x3ea2023c	0.3164233
98	0x3e94efca	0.29089195
99	0x3e8b45ef	0.27201793
100	0x3e7e8dfa	0.24858847
101	0x3e8e64d1	0.27811292
102	0x3e8f18f1	0.27948716
103	0x3e9e8ab0	0.30965185
104	0x3e882c94	0.2659651
105	0x3d2f411e	0.04278671
106	0x3e1ad100	0.1511879
107	0x3e9e3ca1	0.3090563
108	0x3da38206	0.079837844
109	0x3e4acd2c	0.1980483
110	0x3dbb2188	0.09137255
111	0x3e7baa23	0.24576621
112	0x3ea7c62c	0.3276838
113	0x3c31e595	0.010857959
114	0xbe215541	-0.15755178
115	0x3e51fc96	0.2050651
116	0x3cdcc70d	0.026950384
117	0xbe0d5ea4	-0.13805634
118	0x3e46f21e	0.19428298
119	0xbdf1ad2e	-0.118006095
120	0x3ea66cf1	0.3250499
121	0x3eb544bf	0.35404012
122	0x3e05acaf	0.13054155
123	0x3b986311	0.0046504815
124	0x3e16501f	0.14679001
125	0xbbea0b47	-0.0071424576
126	0x3dde1ed6	0.10845725
127	0x3e3c74d8	0.18403947
128	0xbd97acf9	-0.07406039
129	0x3e581f26	0.21105632
130	0x3ec8d462	0.39224535
131	0xbd4c9e05	-0.049955387
132	0x3c7e73b6	0.015530517
133	0x3e524235	0.20533068
134	0x3c5e5e5f	0.0135723045
135	0x3bdc4e52	0.0067232037
136	0xbe9d0463	-0.3066741
137	0xbe9fdc88	-0.3122294
138	0xbea9f7f5	-0.3319699
139	0xbe2148bc	-0.15750402
140	0xbeabb908	-0.33539605
141	0xbe6e2480	-0.23256111
142	0xbd78cdf3	-0.060743283
143	0x3cdb4d5d	0.026770288
144	0x3cc65b5f	0.024213491
145	0xbe724b3b	-0.2366151
146	0xbe1ead00	-0.15495682
147	0xbe3e860e	-0.18605825
148	0xbed45c84	-0.41476834
149	0xbeb4fe33	-0.3535019
150	0xbe95f2a2	-0.29286677
151	0xbe844bf1	-0.2583919
152	0xbd6d7701	-0.05797482
153	0xbdfe764f	-0.12424909
154	0xbe9e4ed6	-0.30919522
155	0xbe912cbf	-0.2835445
156	0xbe9b7bac	-0.30367792
157	0xbef263a6	-0.4734165
158	0xbe8f02c8	-0.2793181
159	0xbe87eb09	-0.26546505
160	0x3bdba714	0.006703267
161	0xbe582f3a	-0.21111766
162	0xbe87e9dd	-0.2654561
163	0xbe7db9d0	-0.24777913
164	0xbdc30d70	-0.095240474
165	0xbed0a8d6	-0.40753812
166	0xbe5b7a93	-0.21433477
167	0xbe69f39e	-0.22846839
168	0xbe822af7	-0.25423405
169	0xbe18e9cd	-0.14932938
170	0x3d47b863	0.04875983
171	0x3d3c8d45	0.046033163
172	0xbdaf8498	-0.08570212
173	0x3ca5b563	0.020228093
174	0xbede841d	-0.4346017
175	0xbec0c334	-0.37648928
176	0xbe273597	-0.16329037
177	0xbea9f844	-0.33197224
178	0xbe155281	-0.14582254
179	0xbd309601	-0.043111805
180	0xbea6d12f	-0.3258147
181	0xbe687935	-0.22702487
182	0xbd45334c	-0.048144624
183	0xbea114bb	-0.3146113
184	0xbe7b635a	-0.24549618
185	0x3c2b6960	0.010462135
186	0xbe2580a1	-0.1616235
187	0xbeba6f9c	-0.36413276
188	0x3d289cc1	0.041165117
189	0x3e1953af	0.14973329
190	0xbe95eb02	-0.2928086
191	0xbe07c249	-0.13257708
192	0x3deb80f9	0.11499209
193	0xbe6e09bb	-0.232459
194	0xbe0067e3	-0.1253963
195	0xbe11b20e	-0.14228079
196	0xbd97f8a3	-0.074204706
197	0xbebecb46	-0.3726446
198	0xbc668040	-0.014068663
199	0xbe25c10f	-0.16186927
200	0xbe673b10	-0.22581124
201	0xbd43d58d	-0.04781108
202	0xbec987dd	-0.39361468
203	0xbd5e7ec8	-0.054320127
204	0x3d935973	0.071947955
205	0xbe9042d2	-0.2817598
206	0xbe990a09	-0.2989047
207	0xbdbc48c7	-0.09193569
208	0xbe93ac78	-0.2884252
209	0xbdeafd9b	-0.11474153
210	0x3e10cd25	0.14140756
211	0xbe96dd8a	-0.29465896
212	0xbe90e199	-0.28297117
213	0x3e1344be	0.14381692
214	0xbeb4b0af	-0.3529105
215	0xbe2fa188	-0.17151463
216	0x3e645d3b	0.2230119
217	0x3e00cda5	0.12578447
218	0x3d181610	0.037130415
219	0x3df9607f	0.12176608
220	0x3e8b6cb5	0.27231374
221	0x3ded2b42	0.115805164
222	0x3e19031c	0.14942592
223	0x3e063f09	0.13109984
224	0x3de9fb59	0.11424894
225	0x3d6ed562	0.058308966
226	0x3eb0565b	0.34440884
227	0xbd896c1d	-0.06710074
228	0xbd41fa4f	-0.047357854
229	0x3dca8829	0.09889252
230	0xbcd8dacb	-0.026471516
231	0x3e9f7717	0.31145546
232	0x3e451ff2	0.19250467
233	0x3c88dc54	0.016706623
234	0xbcf5a29c	-0.029984765
235	0x3d5beaa2	0.05369056
236	0x3b4151e1	0.0029498267
237	0x3d98a9d1	0.07454265
238	0x3e903da3	0.28172025
239	0x3e3e1143	0.18561272
240	0x3e38b647	0.18038283
241	0x3ea31778	0.31853843
242	0x3d9661f7	0.07342904
243	0x3db025ef	0.08600985
244	0x3e48f135	0.19623263
245	0x3e2dad80	0.16960716
246	0x3e91bc51	0.28463987
247	0x3e566b64	0.20939404
248	0xbcaecfc3	-0.021339303
249	0x3e259d09	0.16173185
250	0x3e7246e8	0.23659861
251	0x3d952bc0	0.07283735
252	0x3e812733	0.2522522
253	0x3e07064f	0.13186
254	0x3cf9c890	0.030491143
255	0x3e0a4340	0.13502216

decoder.2.bias f4 [3]
0	0xbe1f3fc2	-0.15551665
1	0xbe9189d5	-0.2842547
2	0xbe0ef4c4	-0.13960558
