trained_models2/autoencoder_paper_lr0.01_bt16.pt (torch, 16584 bytes, 8 tensors)

encoder.0.weight f4 [16, 3, 3, 3]
0	0xbdf6e439	-0.12055249
1	0x3d194569	0.03741971
2	0xbcc41cd6	-0.023939531
3	0xbe4234a5	-0.18965395
4	0x3e54ee32	0.2079399
5	0x3db0dd27	0.086359315
6	0x3dff70df	0.124727
7	0x3de21376	0.11038868
8	0x3d563833	0.05229969
9	0xbdbe67e7	-0.092971615
10	0x3e50e6c4	0.2040053
11	0x3e2f79fe	0.1713638
12	0x3e328183	0.17432217
13	0x3d9a1979	0.0752439
14	0xbd74d49e	-0.05977308
15	0xbaa4cb39	-0.0012572772
16	0x3c8ab888	0.016933694
17	0x3e2d6e5f	0.16936634
18	0x3ddb9734	0.10722199
19	0x3d534fc9	0.05158976
20	0xbd4b1b4f	-0.04958659
21	0x3e2caa00	0.16861725
22	0x3e8610f9	0.26184824
23	0x3e3cd854	0.18441898
24	0x3e45ed49	0.19328798
25	0x3e98f133	0.2987152
26	0xbe4caeb7	-0.19988523
27	0xbe7cb4b5	-0.2467831
28	0x3d8a8592	0.06763758
29	0x3cef0202	0.029175762
30	0xbd9c2ba1	-0.07625509
31	0xbd9ac14c	-0.075564
32	0xbe47e9fd	-0.19522853
33	0xbe8903be	-0.26760668
34	0xbe22f482	-0.15913585
35	0xbec5c441	-0.38626292
36	0xbd03b400	-0.032154083
37	0x3bb99619	0.005663645
38	0x3e3cfbf7	0.18455492
39	0xbd5255a9	-0.051351223
40	0x3c8e1b14	0.017346896
41	0xbe51aac7	-0.20475303
42	0xbdc947c5	-0.09828142
43	0xbd323c04	-0.043514267
44	0xbd3e1cb6	-0.0464141
45	0xbe10fd28	-0.14159071
46	0xbbef3e53	-0.007301131
47	0xbcc14412	-0.023592029
48	0x3d3ad336	0.045611583
49	0x3e02fb9a	0.12791291
50	0xbddd1be5	-0.10796336
51	0x3d981b1e	0.07427047
52	0xbc8d1488	-0.017221704
53	0xbe0156ce	-0.1263077
54	0x3da0a076	0.078431055
55	0x3d52dd8f	0.051480826
56	0x3e80d06b	0.2515901
57	0x3ea22edb	0.31676373
58	0xbcd39b64	-0.025830932
59	0x3cebdd01	0.028791906
60	0x3d7170d0	0.058945477
61	0x3d39eb15	0.045390207
62	0x3da7f955	0.08201853
63	0xbde340de	-0.11096357
64	0xbe68d155	-0.22736104
65	0xbc09dc71	-0.008414374
66	0x3e84f10a	0.25965148
67	0xbc59a021	-0.013282807
68	0xbd83d01a	-0.064361766
69	0x3e2eb0ba	0.17059603
70	0xbe60a7ce	-0.21939012
71	0xbd8d7a17	-0.069080524
72	0xbe17b6f1	-0.1481588
73	0xbccd9df2	-0.025099728
74	0xbdcb61ef	-0.09930789
75	0x3d6ad8e7	0.05733576
76	0xbe23a6c3	-0.15981583
77	0xbe98c556	-0.29838055
78	0x3dcfd9cf	0.101489656
79	0xbe0c2b1c	-0.1368832
80	0xbdd77ca0	-0.10521817
81	0xbc74cf54	-0.014942009
82	0x3d7238b4	0.059136108
83	0xbaa38436	-0.0012475315
84	0x3dc79825	0.09745816
85	0xbd8fbd0c	-0.0701848
86	0x3e590bbd	0.21195884
87	0xbdcb4d8d	-0.09926901
88	0x3de2c502	0.110727325
89	0x3dedf4b9	0.11618943
90	0x3ca5e894	0.020252503
91	0x3cc6b41a	0.024255801
92	0x3e8cb6a0	0.27483082
93	0x3c62180b	0.013799678
94	0x3df0746f	0.11740958
95	0x3ea49ea6	0.3215229
96	0x3dbca06e	0.09210287
97	0xbddaa8bb	-0.10676714
98	0xbd23ff97	-0.04003867
99	0xbae50141	-0.0017471687
100	0xbd93b7f2	-0.07212819
101	0xbe2f0228	-0.17090666
102	0xbe97e23a	-0.29664785
103	0xbea5a70d	-0.32354012
104	0xbe4802bb	-0.19532292
105	0xbe75dc86	-0.24009904
106	0xbea44d58	-0.3209026
107	0xbdc0a6d2	-0.094068184
108	0xbd701044	-0.058609262
109	0x3d1d8c7f	0.038464066
110	0xbe30a580	-0.17250633
111	0x3d58273f	0.052771803
112	0x3e8fcb5d	0.2808484
113	0x3e4fe2a9	0.20301308
114	0x3e261c36	0.16221699
115	0xbdafd6ad	-0.08585868
116	0xbe3a0e3f	-0.18169497
117	0x3dddb41f	0.10825371
118	0x3dafb73a	0.085798696
119	0x3dfc5bf5	0.12322227
120	0x3e58a9b8	0.21158493
121	0x3e62dfad	0.22155638
122	0xbd8bb8b6	-0.0682234
123	0x3cd61376	0.026132327
124	0xbd0a2169	-0.03372327
125	0x3d8b3ae5	0.067983426
126	0xbd24b658	-0.04021296
127	0x3cca8189	0.02471997
128	0xbdd774e5	-0.10520343
129	0x3e5aff4b	0.21386449
130	0x3df175c8	0.11790043
131	0xbca9ec6c	-0.020742618
132	0x3e5f2e0f	0.21794914
133	0x3e50ef5b	0.20403807
134	0x3dbc2739	0.09187169
135	0x3d038940	0.032113314
136	0x3e0c9582	0.13728908
137	0xbd308e59	-0.043104503
138	0xbdc38960	-0.095476866
139	0xbde365e8	-0.111034214
140	0xbe14e049	-0.14538683
141	0x3c9f5e49	0.019454138
142	0xbd04d092	-0.03242547
143	0x3c90902e	0.017646875
144	0xbe1faee2	-0.15594056
145	0xbc8a589d	-0.016887957
146	0xbe2b1275	-0.1670626
147	0xbdd5ca75	-0.10439006
148	0xbe47e240	-0.19519901
149	0xbe60e9c9	-0.21964182
150	0xbe30f8b6	-0.17282376
151	0x3d91e32f	0.0712341
152	0x3cf5ad84	0.029989965
153	0xbda1d47d	-0.07901857
154	0xbd53e120	-0.051728368
155	0x3e1ed911	0.15512492
156	0xbd9f90e4	-0.077913076
157	0xbd302b7a	-0.043010212
158	0x3af264e4	0.0018493203
159	0x3e0e5b79	0.13902082
160	0x3e16561f	0.1468129
161	0x3dfb1073	0.12258997
162	0x3d513c96	0.05108317
163	0xbdb35829	-0.087570496
164	0x3eb05a94	0.34444106
165	0xbeb899fd	-0.36054984
166	0xbe731ab1	-0.2374065
167	0x3d9359e8	0.07194883
168	0x3e006035	0.125367
169	0xbd0f0331	-0.034915153
170	0x3dc4f01b	0.09616109
171	0xbd5de551	-0.05417377
172	0x3cd994a0	0.026560128
173	0x3e2b4c8b	0.16728418
174	0xbecff50d	-0.40616646
175	0xbea0b59a	-0.3138855
176	0xbe3c82f7	-0.18409334
177	0xbdb88fa1	-0.0901177
178	0x3d7669cc	0.06015949
179	0x3c8f8632	0.017520044
180	0x3b9996a7	0.0046871486
181	0xbe5388f4	-0.20657712
182	0xbdd1261e	-0.102123484
183	0xbec0cbd4	-0.3765551
184	0xbe9890c0	-0.29797935
185	0xbdf08292	-0.11743654
186	0x3d9661d4	0.07342878
187	0xbe491416	-0.19636568
188	0x3cc15851	0.023601683
189	0xbeb9ad05	-0.36264816
190	0xbccc0eb9	-0.024909364
191	0xbe2d2012	-0.16906765
192	0xbe910af7	-0.28328678
193	0x3c06b3ac	0.008221548
194	0xbced2f87	-0.028953327
195	0xbf0692ad	-0.5256756
196	0xbe972abe	-0.29524797
197	0xbe4dd781	-0.2010174
198	0xbee87971	-0.45405152
199	0xbd1a0c04	-0.037609115
200	0xbde2549c	-0.11051294
201	0xbe04237c	-0.12904161
202	0xbe405df4	-0.1878584
203	0xbe93c2bd	-0.2885951
204	0xbe86a811	-0.263001
205	0xbe2448ce	-0.16043398
206	0xbebed4e6	-0.37271804
207	0xbe5bb53e	-0.21455857
208	0xbd863e96	-0.06554906
209	0xbdf46b79	-0.11934561
210	0xbd72817d	-0.05920552
211	0x3e4c46b7	0.1994885
212	0x3e2f7c5d	0.17137285
213	0xbe1cad59	-0.15300502
214	0xbde74129	-0.11291725
215	0xbd0cdbb2	-0.034389205
216	0x3cbe8f7b	0.023261776
217	0xbd47712d	-0.048691917
218	0xbe634faf	-0.22198366
219	0xbe08d4f9	-0.13362493
220	0xbe460f0c	-0.19341677
221	0xbe4bdb11	-0.19907786
222	0xbd86e539	-0.065866895
223	0xbe0269bb	-0.12735645
224	0xbe0a1981	-0.13486291
225	0x3e2031b9	0.15643968
226	0x3e309350	0.17243695
227	0xbc6f478f	-0.014604463
228	0x3e1b1a01	0.15146638
229	0x3c9619c8	0.01832284
230	0xbd1e2be0	-0.03861606
231	0x3dc3aa10	0.09553921
232	0xbcedd46a	-0.029031951
233	0x3d5bc2cb	0.053652566
234	0xbe4033fd	-0.18769832
235	0xbddd728d	-0.108128645
236	0x3e0680fd	0.13135143
237	0x3dd80f72	0.10549821
238	0xbe5094c4	-0.2036925
239	0x3d950c87	0.0727778
240	0x3d0c234c	0.03421335
241	0xbd2e6533	-0.04257698
242	0xbe2c8ccb	-0.16850583
243	0x3dfde593	0.123973034
244	0xbdef2d74	-0.11678591
245	0x3de446d9	0.111463256
246	0x3da5890d	0.08082781
247	0xbe0d9283	-0.13825421
248	0xbd3331d4	-0.04374869
249	0xbe883bda	-0.26608163
250	0xbd9cb90e	-0.07652484
251	0xbdc4dd7f	-0.096125595
252	0xbda4b3f4	-0.08042136
253	0x3d8d044d	0.06885586
254	0xbdb97986	-0.09056382
255	0xbd0b8c25	-0.0340692

encoder.0.bias f4 [16]
0	0xbeabccb3	-0.3355461
1	0x3ef1a0a5	0.47192875
2	0x3f05137b	0.5198285
3	0x3f3ab96e	0.72939193
4	0xbfb698bd	-1.4265362
5	0x3f61ab71	0.88152224
6	0x3ee2feee	0.4433512
7	0xbe4a4c58	-0.19755685
8	0x3f7a8b2c	0.9786861
9	0x3f3cb262	0.7370969
10	0x3f2ebb77	0.682548
11	0x3d91732c	0.071020454
12	0xbe4b5bdf	-0.19859265
13	0xbde3f8ac	-0.11131415
14	0x3e23caf8	0.15995395
15	0xbec70127	-0.38868067

encoder.2.weight f4 [8, 16, 3, 3]
0	0xbe03173f	-0.12801836
1	0x3e12a987	0.14322482
2	0xbdb85d1c	-0.09002134
3	0x3ca9ed48	0.020743027
4	0x3eff5df9	0.49876383
5	0xbde076cd	-0.109601595
6	0xbe135b6b	-0.14390342
7	0x3df8a605	0.12141041
8	0xbe144fbd	-0.14483543
9	0xbe9346c3	-0.28764924
10	0x3e2dccf9	0.16972722
11	0x3d83944d	0.064247705
12	0xbd6f0db7	-0.05836269
13	0x3e5b1ef1	0.21398522
14	0x3e5cb7d2	0.21554497
15	0xbe3ec67f	-0.18630408
16	0xbbf4ba4b	-0.007468497
17	0x3e21fa32	0.15818098
18	0xbc63b551	-0.01389821
19	0x3e1b5f86	0.15173158
20	0xbe9a45fe	-0.30131525
21	0xbdb43f40	-0.088011265
22	0x3df77657	0.120831184
23	0xbe5ec5e6	-0.2175518
24	0x3eaeb3fd	0.34121695
25	0xbc814e5b	-0.015784433
26	0xbeafb6fa	-0.34319288
27	0xbcb7895c	-0.022404365
28	0xbe19c1eb	-0.1501538
29	0x3e79948f	0.24373077
30	0x3e7ed317	0.24885212
31	0xbf228551	-0.63484675
32	0xbdaabd86	-0.0833693
33	0xbd8266db	-0.063672744
34	0xbe528ce3	-0.20561557
35	0x3e1575b1	0.14595677
36	0xbcdaf617	-0.026728673
37	0x3e5c93a4	0.21540695
38	0xbeee9621	-0.46598914
39	0xbd886de8	-0.06661588
40	0x400383d4	2.0549212
41	0xbe63aea2	-0.22234586
42	0xbf03285d	-0.51233464
43	0xbc3db662	-0.011579128
44	0xbeb2e37e	-0.34939188
45	0x3e1aefb2	0.15130499
46	0x3ecfc15e	0.40577215
47	0xbd368fc7	-0.04457071
48	0xbed4126c	-0.41420305
49	0xbf036261	-0.5132199
50	0x3e88d8c4	0.2672788
51	0x3e305c08	0.17222607
52	0x3eafaccb	0.34311518
53	0x3e17b625	0.14815576
54	0xbd50d94e	-0.050988488
55	0x3d6e2782	0.058143146
56	0x3d96a49c	0.073556155
57	0x3e9c42d6	0.30519742
58	0xbf8f03b3	-1.1173004
59	0x3e071e5e	0.13195178
60	0x3dd5d1f4	0.10440436
61	0xbdedc868	-0.1161049
62	0x3e521ec3	0.20519547
63	0xbd70da6f	-0.058802065
64	0xbdde57ad	-0.108565666
65	0x3e4d369c	0.20040363
66	0x3e6d01ff	0.23145293
67	0xbca211ea	-0.019783933
68	0x3e29060b	0.16506211
69	0xbdb30c84	-0.087426215
70	0xbdccdffa	-0.10003658
71	0x3e2bcf7d	0.16778369
72	0xbe9e7ec9	-0.30956104
73	0xbdc01006	-0.09378056
74	0xbe53266a	-0.20620123
75	0xbedc9313	-0.4308096
76	0x3e0e4ab2	0.13895682
77	0xbe20aabf	-0.15690134
78	0x3f099c87	0.53754467
79	0x3c79b4c8	0.0152408555
80	0xbe566c85	-0.20939834
81	0xbe7e246a	-0.24818578
82	0xbea12870	-0.31476164
83	0x3eb3c5fd	0.3511199
84	0x3f074328	0.5283685
85	0xbf268c88	-0.65058184
86	0x3ee5665c	0.44804657
87	0xbd962df8	-0.073329866
88	0xbe13f769	-0.14449848
89	0x3db24480	0.087044716
90	0x3e3fd734	0.18734437
91	0xbdb58584	-0.08863357
92	0xbb8bb4c7	-0.0042634937
93	0xbe8e4e9a	-0.27794343
94	0xbf3ab300	-0.7292938
95	0x3d99f02a	0.07516511
96	0x3ebf0264	0.3730651
97	0x3d9daf6a	0.07699473
98	0x3cf32554	0.029680885
99	0x3d869397	0.06571119
100	0xbe1ad638	-0.1512078
101	0x3e48e419	0.19618262
102	0xbe2b7e3f	-0.16747378
103	0x3ef7caf3	0.48397025
104	0xbdf55106	-0.119783446
105	0xbefa43a3	-0.48879728
106	0x3e16d0f8	0.14728153
107	0xbcddd13b	-0.027077308
108	0x3b9592fc	0.004564641
109	0x3c14d1a7	0.009083188
110	0x3cfbdbb3	0.03074441
111	0xbc822b4c	-0.015889786
112	0x3d73078a	0.05933336
113	0x3cdb500a	0.026771564
114	0x3dc94987	0.09828477
115	0x3de51256	0.11185138
116	0x3d6d4327	0.05792537
117	0xbdb002d5	-0.0859429
118	0x3abbef93	0.0014338366
119	0xbdfbf70e	-0.12302981
120	0x3d513b9c	0.05108224
121	0xbd825702	-0.06364252
122	0x3e809ebf	0.25121114
123	0xbdca26cf	-0.098706834
124	0xbdc51ebe	-0.09625004
125	0x3e375e6b	0.17907111
126	0xbde3fe6f	-0.11132514
127	0xbeabeaa1	-0.33577445
128	0xbf04beb4	-0.5185349
129	0xbf079e15	-0.5297559
130	0xbec866e4	-0.39141
131	0xbf0df901	-0.55458075
132	0xbf0af680	-0.5428238
133	0xbdae6544	-0.08515409
134	0xbf1ccc72	-0.6124946
135	0xbe2d7d71	-0.16942383
136	0xbe9ae025	-0.30249134
137	0xbd03f149	-0.03221253
138	0xbe591f6a	-0.2120339
139	0xbf110528	-0.5664849
140	0xbe99f578	-0.3007009
141	0xbdd20e6c	-0.10256657
142	0xbe53f409	-0.20698561
143	0xbe54a1d6	-0.2076486
144	0x3df5203e	0.1196904
145	0xbda7661e	-0.08173774
146	0xbe12a334	-0.1432007
147	0x3e3285fc	0.17433923
148	0x3e2653f2	0.1624296
149	0x3d0d4f26	0.03449931
150	0x3e0f0ead	0.13970442
151	0x3d8b4440	0.06800127
152	0xbe119cda	-0.1421999
153	0x3d102956	0.03519567
154	0x3de2f541	0.11081935
155	0x3d866d96	0.065638706
156	0x3c85a3f6	0.016313534
157	0xbf1df1ae	-0.616969
158	0xbdd63907	-0.10460096
159	0x3e1b01cc	0.15137404
160	0xbead2974	-0.3382069
161	0x3dbbd73a	0.091719106
162	0xbe7dc4d8	-0.24782121
163	0x3edd707e	0.43249887
164	0xbeb07397	-0.34463188
165	0xbe8ac250	-0.27101374
166	0x3ede17fa	0.43377668
167	0x3e95a621	0.2922831
168	0xbe986ec4	-0.29772007
169	0x3cc8cd6e	0.024512019
170	0x3e23b03f	0.15985201
171	0x3e7dd5d2	0.24788597
172	0x3ddb6026	0.10711698
173	0x3e5649ba	0.20926562
174	0x3e431677	0.19051538
175	0x3eaf28df	0.3421087
176	0x3ca394f4	0.019968487
177	0x3ccf9f5e	0.025344547
178	0x3ebf4906	0.373604
179	0xbe67a77d	-0.22622485
180	0x3edf8747	0.43657896
181	0x3d8f1326	0.06986074
182	0xbf09c841	-0.5382119
183	0x3e96abcc	0.29427946
184	0x3ee2a3df	0.4426565
185	0x3efe08a4	0.49615967
186	0x3d6fb9db	0.058526855
187	0x3e5ac29e	0.21363303
188	0x3ed565d6	0.41679257
189	0xbd39a841	-0.045326475
190	0x3d80e9c2	0.06294586
191	0x3d8e60c8	0.06952053
192	0x3d200b3c	0.039073214
193	0x3cc0fa28	0.023556784
194	0xbd5b4ed9	-0.05354199
195	0x3e0a892a	0.13528886
196	0xbe754c90	-0.23954988
197	0xbeaa126f	-0.3321719
198	0x3e2c2608	0.16811383
199	0x3e645a02	0.2229996
200	0x3e7e9249	0.24860491
201	0xbdce4bcc	-0.10073051
202	0xbe9c79cd	-0.30561677
203	0x3dbd5f58	0.09246701
204	0x3d6a271f	0.057166215
205	0xbd7babc4	-0.061443105
206	0xbd40b1e7	-0.04704466
207	0x3de1d02e	0.11026035
208	0xbe7ea157	-0.24866234
209	0xbc1d5603	-0.009603026
210	0x3e13a44a	0.1441814
211	0xbeaf21c6	-0.34205455
212	0xbe2aa13a	-0.16663066
213	0x3daee319	0.08539409
214	0x3ca1f7e0	0.019771516
215	0xbe003586	-0.12520418
216	0xbee22b79	-0.44173792
217	0x3e2b37f6	0.16720566
218	0xbe1c7fcf	-0.1528313
219	0xbf054e69	-0.5207277
220	0xbecb2be0	-0.3968191
221	0xbe0eac28	-0.1393286
222	0xbdfb0e90	-0.12258637
223	0xbeadbe0c	-0.33934057
224	0xbbeea931	-0.007283353
225	0xbc33fdd2	-0.010985808
226	0xbcfa36b4	-0.030543663
227	0x3e97cc51	0.2964807
228	0xbe808a2e	-0.25105423
229	0xbdd901f5	-0.105960764
230	0xbea4012c	-0.32032144
231	0xbd9efe8f	-0.07763397
232	0x3d604c7f	0.054760452
233	0xba657994	-0.0008753773
234	0xbdc35683	-0.09537985
235	0xbe4d72f2	-0.2006338
236	0x3cfac677	0.030612214
237	0x3d785299	0.060625646
238	0x3d3039b8	0.043023795
239	0x3e96ab7f	0.29427716
240	0xbe82e9df	-0.25569054
241	0xbf154770	-0.5831213
242	0x3e599439	0.21247949
243	0x3d141cb8	0.0361602
244	0x3d82f4a1	0.063943155
245	0x3dcd203f	0.10015916
246	0x3e3c9903	0.18417744
247	0xbdb36635	-0.08759729
248	0xbd7ce0d5	-0.061737854
249	0x3da8a92c	0.08235392
250	0xbd4a7e10	-0.04943663
251	0x3e2cfe20	0.16893816
252	0xbd24ad12	-0.040204115
253	0xbd46778c	-0.048453853
254	0xbb34b534	-0.0027573826
255	0xbc65a30a	-0.014015922

encoder.2.bias f4 [8]
0	0xbe8e34dd	-0.27774706
1	0xbeff34a0	-0.49844837
2	0xbe2f7097	-0.17132793
3	0xbefb5365	-0.49087062
4	0x3e9962d8	0.29958224
5	0xbf5bfd0d	-0.85933
6	0xbf33282f	-0.6998319
7	0xbdfb62e9	-0.12274725

decoder.0.weight f4 [8, 16, 3, 3]
0	0x3cf6b715	0.030116597
1	0x3e6aec85	0.22941788
2	0xbc953bcd	-0.018216992
3	0xbea47f47	-0.32128355
4	0xbe915ce8	-0.28391194
5	0x3e313aed	0.17307635
6	0x3ee5276c	0.4475664
7	0x3e50425b	0.20337813
8	0x3da68793	0.081313275
9	0xbe8b90f1	-0.2725902
10	0x3e1bac50	0.15202451
11	0xbc993822	-0.018703524
12	0xbe03f568	-0.12886584
13	0x3f3ee5bf	0.74569315
14	0xbcd5a34b	-0.02607884
15	0xbe901dc5	-0.28147712
16	0x3ec9c993	0.394116
17	0xbe252391	-0.16126849
18	0xbd1c942c	-0.038227245
19	0x3ddfa914	0.10920921
20	0xbc1b6015	-0.009483357
21	0x3f22b420	0.635561
22	0x3f2143ce	0.62994087
23	0x3bfb2a1e	0.007664933
24	0xbe8d16fe	-0.27556604
25	0x3e5e5d98	0.2171539
26	0xbe921550	-0.28531885
27	0xbe970011	-0.29492238
28	0xbd46d396	-0.048541628
29	0x3d78bf12	0.060729094
30	0xbc95f2a4	-0.018304177
31	0xbf7b1a35	-0.98086864
32	0x3ee4f4d7	0.44718048
33	0xbd009b1b	-0.03139792
34	0x3e3ac337	0.18238531
35	0x3e9992eb	0.29994902
36	0x3e8b742a	0.27237064
37	0x3f6115f1	0.87924105
38	0xbeb4412d	-0.35205975
39	0x3d703dd3	0.05865271
40	0x3dd6a9d0	0.10481608
41	0xbeb60030	-0.35547018
42	0xbe4b5f27	-0.19860516
43	0x3f26a446	0.6509441
44	0xbea436b5	-0.32072988
45	0x3f191c72	0.5980903
46	0x3eacde49	0.3376334
47	0xbf485c2d	-0.7826565
48	0xbf04e821	-0.519167
49	0x3ed4e1f8	0.4157865
50	0x3d4e4e04	0.05036737
51	0xbe91dcbe	-0.28488725
52	0xbece1a43	-0.4025441
53	0xbf532afb	-0.8248746
54	0x3d8f76a2	0.07005049
55	0xbe71b913	-0.23605756
56	0xbf00a50b	-0.50251836
57	0x3eb7fa7d	0.35933295
58	0x3f586366	0.8452667
59	0xbe30f6d6	-0.1728166
60	0xbeae0afd	-0.33992758
61	0x3e8b38d3	0.2719179
62	0xbee7f068	-0.45300603
63	0xbdb2bb0e	-0.08727084
64	0xbd2c19f8	-0.042016953
65	0xbc036e0c	-0.008021843
66	0x3cbe0780	0.023196936
67	0x3cd2289b	0.025654128
68	0x3d944c9e	0.07241176
69	0x3cd6db27	0.026227547
70	0xbde55840	-0.11198473
71	0xbdaee506	-0.085397765
72	0xbd024925	-0.031808037
73	0x3e939a5a	0.28828698
74	0xbebb5a06	-0.3659212
75	0xbe9b5ab3	-0.30342636
76	0x3f161a78	0.5863414
77	0xbdebabd7	-0.11507385
78	0xbf072f86	-0.5280689
79	0x3e9c599f	0.30537125
80	0xbdf5fdc3	-0.12011292
81	0xbcc8184c	-0.024425648
82	0x3e5b926b	0.21442573
83	0x3e2ab706	0.1667138
84	0xbf3dac20	-0.74090767
85	0x3f82055e	1.0157888
86	0x3e2c05b1	0.16799046
87	0xbde0f506	-0.109842345
88	0x3f5d7db1	0.86519915
89	0x3f3d375d	0.739126
90	0x3e418cd7	0.18901382
91	0x3e7b6c6b	0.24553077
92	0x3d9a456f	0.07532775
93	0xbee0f7d9	-0.43939093
94	0xbf6e7039	-0.9313999
95	0x3e0dc186	0.13843355
96	0x3ea7adfe	0.32749933
97	0xbe8fb117	-0.28064796
98	0x3e1867cb	0.14883344
99	0xbd89ba15	-0.067249455
100	0x3e038439	0.12843408
101	0xbe109567	-0.14119492
102	0xbe8b543b	-0.272127
103	0x3eadde9a	0.33958894
104	0xbeea4c82	-0.45761496
105	0xbdb66903	-0.08906748
106	0x3e864adf	0.26228997
107	0xbe12d68e	-0.14339659
108	0x3d6829ae	0.056680374
109	0xbc2ae38b	-0.010430227
110	0xbd7a7c60	-0.06115377
111	0xbd485946	-0.048913263
112	0xbdf2fe6e	-0.11864935
113	0xbbf81ad6	-0.0075715585
114	0xbe0a84e0	-0.1352725
115	0xbe0c183c	-0.1368112
116	0xbd73349e	-0.05937635
117	0xbe9f8752	-0.3115793
118	0xbfb77d14	-1.4335046
119	0xbe265ed6	-0.16247115
120	0xbd7418a8	-0.059593827
121	0xbe1d9fd8	-0.15393007
122	0x3e1967d5	0.14981015
123	0x3eb541de	0.35401815
124	0x3f973cb7	1.1815404
125	0xbd90137e	-0.07034968
126	0xbdc2d90a	-0.09514053
127	0x3ed86600	0.4226532
128	0x3d01115f	0.031510707
129	0xbf191a3c	-0.59805655
130	0xbee04202	-0.4380036
131	0x3ed3fdde	0.41404623
132	0x3ecb07c3	0.3965436
133	0x3ef740ba	0.4829157
134	0x3f01b26a	0.50662863
135	0x3e0b70d2	0.13617256
136	0xbc595d85	-0.013266926
137	0xbe607d62	-0.2192283
138	0xbe963364	-0.29336083
139	0x3f181f14	0.5942242
140	0x3ee2199f	0.44160172
141	0x3efcf21a	0.4940346
142	0x3c212acc	0.009836864
143	0x3df7022e	0.120609626
144	0x39c62f93	0.00037800948
145	0x3f2e9120	0.68190193
146	0x3ef3eea4	0.47643006
147	0x3de0f96d	0.10985074
148	0x3f1a9bf2	0.60394204
149	0x3ee16bd7	0.44027588
150	0x3e3f447e	0.18678471
151	0x3e18df6b	0.14928977
152	0x3d6c391c	0.05767165
153	0xbe88c365	-0.26711574
154	0xbdd7dc72	-0.105400935
155	0xbd8bf523	-0.068338655
156	0xbd99306b	-0.07479938
157	0x3f346a99	0.70475155
158	0xbe72bca0	-0.23704767
159	0xbe8f1538	-0.27945876
160	0x3f1f4015	0.62207156
161	0xbe24960c	-0.16072863
162	0x3e1655ba	0.1468114
163	0x3c888014	0.016662635
164	0xbdd9faad	-0.10643516
165	0x3e83246a	0.2561372
166	0x3ecb7827	0.39740106
167	0x3ef9d701	0.48796847
168	0xbd95c3b8	-0.07312721
169	0x3efba44e	0.49148792
170	0x3f23af32	0.639392
171	0xbe490463	-0.1963058
172	0xbe60040a	-0.21876541
173	0x3e688bf2	0.22709635
174	0xbe5b7751	-0.21432234
175	0xbef09c0a	-0.46994048
176	0xbefbdbf3	-0.49191245
177	0xbee7df64	-0.4528762
178	0xbf04a57d	-0.51815015
179	0xbf1d5e64	-0.61472154
180	0x3f2be210	0.6714182
181	0x3ed40231	0.41407922
182	0xbe9f8b49	-0.31160954
183	0x3f988140	1.1914444
184	0xbd8af34e	-0.06784688
185	0xbee25f3f	-0.44213292
186	0x3f285108	0.65748644
187	0xbf51f438	-0.82013273
188	0x3e80c3f2	0.25149494
189	0x3e0c0374	0.13673192
190	0x3efed73f	0.49773595
191	0xbef01e51	-0.4689813
192	0xbe7914e1	-0.24324371
193	0x3e0b68a2	0.13614133
194	0x3ed07fd2	0.4072252
195	0xb9e7f0fc	-0.000442393
196	0xbee7bc0f	-0.45260665
197	0x3ee00457	0.4375331
198	0x3ed6f88d	0.41986504
199	0x3dc64cc2	0.09682609
200	0xbe748588	-0.23879063
201	0x3f2fb554	0.6863606
202	0x3f31e5cd	0.69491273
203	0x3f11c0a2	0.5693456
204	0x3e5674b7	0.2094296
205	0x3f11524b	0.56766194
206	0x3f1e79f3	0.6190483
207	0xbc69bff9	-0.014266961
208	0xbd4cd5ab	-0.050008457
209	0x3ac31747	0.0014884257
210	0xbd2b4670	-0.04181522
211	0x3d07bc36	0.033138476
212	0xbd8b0743	-0.067884944
213	0xbda44e82	-0.08022787
214	0x3cb5f36a	0.022210795
215	0xbdc63f5e	-0.09680055
216	0x3e9edbf6	0.31027192
217	0x3c153c38	0.009108596
218	0xbdb73fb2	-0.08947696
219	0xbca3d53e	-0.019999143
220	0x3f5be33f	0.85893625
221	0xbdf8beef	-0.12145793
222	0xbc6b4e5c	-0.014361944
223	0x3f15f36f	0.58574575
224	0x3ef7f272	0.4842716
225	0xbf100120	-0.56251717
226	0x3f17b950	0.5926714
227	0xbeed6d73	-0.46372566
228	0xbf2b7e1a	-0.6698929
229	0x3eb99799	0.36248472
230	0xbe75d63f	-0.2400751
231	0xbfc6d9be	-1.55352
232	0xbeb46beb	-0.35238585
233	0x3ebfbdd7	0.37449524
234	0xbdaa0417	-0.08301561
235	0x3f6a7d9f	0.9159793
236	0x3ea6c816	0.32574528
237	0xbebe0661	-0.37114242
238	0x3f4e2db4	0.8053849
239	0x3ef11a54	0.470904
240	0xbe9ef29c	-0.3104447
241	0xbc531af3	-0.012884843
242	0xbd3af73a	-0.04564593
243	0xbdc85869	-0.09782488
244	0xbed63c76	-0.41843003
245	0xbe1deed1	-0.15423132
246	0xbe49f36f	-0.19721769
247	0x3e89587c	0.2682532
248	0xbe83079e	-0.2559175
249	0xbe39389f	-0.18088005
250	0x3ee7bd41	0.45261577
251	0xbddf29e4	-0.10896662
252	0xbda40dcc	-0.08010444
253	0xbd84be46	-0.06481604
254	0xbd9c061c	-0.07618353
255	0xbd930f93	-0.07180705

decoder.0.bias f4 [16]
0	0x3f07c88b	0.5304038
1	0x3d9b369b	0.075787745
2	0xbde08de0	-0.109645605
3	0x3e72b0f5	0.23700316
4	0x3ddfb812	0.109237805
5	0xbe025837	-0.12728964
6	0x3d8d4129	0.06897194
7	0xbde9b16a	-0.11410792
8	0xbc802783	-0.01564384
9	0xbf208ad2	-0.62711823
10	0x3edd3e7d	0.43211737
11	0x3e84c820	0.25933933
12	0xbd4cbe3e	-0.049986117
13	0x3ee9e92b	0.45685706
14	0x3eb07146	0.3446142
15	0xbe3ee682	-0.18642619

decoder.2.weight f4 [16, 3, 3, 3]
0	0xbd8cc3ff	-0.06873321
1	0x3d03d586	0.032186054
2	0xbe4816f7	-0.1954001
3	0x3eb4b0d2	0.35291153
4	0x3f5de1bb	0.8667256
5	0x3e2e46b1	0.17019154
6	0x3e86cc9c	0.2632798
7	0x3e26c8c6	0.16287526
8	0xbd8214aa	-0.063515976
9	0xbe859382	-0.26089102
10	0xbe9b0e3b	-0.30284294
11	0xbec03912	-0.3754354
12	0xbe79604f	-0.24353145
13	0xbee5c6d9	-0.4487827
14	0xbe2d9023	-0.16949515
15	0xbd19c674	-0.037542775
16	0xbf0d9cde	-0.55317485
17	0xbec6182a	-0.3869031
18	0xbf1114e7	-0.5667252
19	0xbf807a79	-1.0037376
20	0xbf1ead11	-0.6198283
21	0xbf521f8d	-0.8207939
22	0xbfc35034	-1.5258851
23	0xbf3a2a71	-0.7272101
24	0xbeee5581	-0.4654961
25	0xbf9bd156	-1.2173259
26	0xbf1c3b93	-0.61028403
27	0x3e72491e	0.23660704
28	0xbdd94295	-0.10608403
29	0x3e6b4e9a	0.22979203
30	0x3f1b1ff1	0.60595614
31	0x3f7b4a40	0.9816017
32	0x3f52376b	0.8211581
33	0x3f3cf7fe	0.73815906
34	0x3f4ddcc4	0.80414987
35	0x3f0106c0	0.50400925
36	0x3e023330	0.12714839
37	0xbea00eca	-0.31261283
38	0x3e08d690	0.13363099
39	0x3f0587a0	0.5216007
40	0x3f43ad93	0.7643673
41	0x3f16bb1d	0.5887926
42	0x3f29a088	0.66260576
43	0x3f0299d3	0.5101597
44	0x3ef4cd5a	0.4781292
45	0x3e1b3671	0.15157486
46	0xbe5895f7	-0.21150957
47	0x3dfa659a	0.1222641
48	0x3f39e83b	0.7261998
49	0x3f5b0759	0.85558087
50	0x3f062f06	0.524155
51	0x3f38e5fe	0.7222594
52	0x3f2e6ea5	0.6813758
53	0x3ed6f2dd	0.41982165
54	0x3ee8f069	0.45495918
55	0x3f130769	0.5743318
56	0x3e777196	0.24164423
57	0x3f80632e	1.0030267
58	0x3f812d42	1.0091937
59	0x3ed9bfc4	0.42529118
60	0x3eca9a52	0.39570862
61	0x3f025cc6	0.5092281
62	0x3db2bdd0	0.0872761
63	0x3e9ce72e	0.30645126
64	0x3ded694c	0.115923494
65	0x3d03de23	0.032194268
66	0x3effedea	0.49986202
67	0x3e09722a	0.13422456
68	0xbde26f8e	-0.110564336
69	0x3dc1fe80	0.0947237
70	0x3d4c0a66	0.049814604
71	0xbe15568a	-0.14583793
72	0x3ee4217e	0.44556803
73	0x3ef3337d	0.4750022
74	0x3dc7b670	0.09751594
75	0x3f6bb0bc	0.9206655
76	0x3f5525da	0.8326088
77	0x3e357f9d	0.17724462
78	0x3ebc405d	0.36767855
79	0x3ef664fa	0.48123914
80	0xbd54ef77	-0.051986184
81	0xbf049c47	-0.5180096
82	0xbf335529	-0.7005182
83	0xbd274f2f	-0.040847
84	0xbf9a153a	-1.2037728
85	0xbfe81e41	-1.8134233
86	0xbd76d0fd	-0.0602579
87	0xbf61ecff	-0.8825225
88	0xbfb19ff3	-1.3876938
89	0xbdc38d3b	-0.09548422
90	0xbd760bb3	-0.06006975
91	0xbe0213ac	-0.12702817
92	0x3e5396a4	0.20662934
93	0xbeb68f46	-0.35656184
94	0xbf252028	-0.6450219
95	0x3ee32e6b	0.44371352
96	0xbeef8973	-0.46784553
97	0xbf5536bf	-0.8328666
98	0x3e4013ce	0.18757555
99	0xbe6dbcb3	-0.23216514
100	0x3db390d4	0.08767858
101	0x3e7492e8	0.23884165
102	0xbefa4615	-0.48881593
103	0xbea786dc	-0.32720077
104	0x3f0a9565	0.5413421
105	0xbf076284	-0.528847
106	0xbf143df5	-0.5790704
107	0x3e772647	0.24135695
108	0xbe01a24b	-0.12659566
109	0x3e72171c	0.23641628
110	0xbe816bcf	-0.25277564
111	0xbde011e1	-0.1094091
112	0x3f5bbbe3	0.8583357
113	0xbf078a73	-0.5294563
114	0x3d9a61a9	0.075381584
115	0x3f64f1cf	0.8943147
116	0xbe841c53	-0.2580286
117	0xbea2c8c9	-0.31793812
118	0xbd7cb6e6	-0.061697863
119	0xbec84418	-0.3911445
120	0xbeaab3f2	-0.33340412
121	0x3ee1f7a5	0.4413425
122	0xbf330df6	-0.6994318
123	0x3e0cc5af	0.13747285
124	0x3f390cfb	0.7228543
125	0xbe998db5	-0.29990926
126	0xbe7e12ac	-0.2481181
127	0x3d6cc992	0.05780942
128	0xbebcb430	-0.36856222
129	0xbe16810d	-0.14697666
130	0x3f289005	0.65844756
131	0xbf17099e	-0.5899905
132	0x3d9497a6	0.07255487
133	0x3f447182	0.767357
134	0xbe6b26f5	-0.2296408
135	0xbdd7614c	-0.10516605
136	0xbeba74fa	-0.3641737
137	0xbebdc7f3	-0.37066612
138	0x3ebf7bd8	0.37399173
139	0x3d16f892	0.03685815
140	0xbefa08e3	-0.48834905
141	0x3f48d491	0.7844935
142	0x3f6bf53f	0.9217109
143	0x3e72b5cd	0.23702164
144	0xbd971f1a	-0.07378979
145	0xbe9a52f1	-0.30141404
146	0xbeb4ac7b	-0.35287842
147	0x3f2b3065	0.6687072
148	0x3e9fd02d	0.31213513
149	0xbe9a90b3	-0.30188522
150	0x3f6a8134	0.916034
151	0x3f7b30c1	0.9812127
152	0x3e871005	0.2637941
153	0x3e16993a	0.14706889
154	0xbd0d302e	-0.034469776
155	0xbe482dd5	-0.19548734
156	0x3f727b90	0.9471979
157	0x3f54f7f0	0.8319082
158	0x3af07209	0.0018344532
159	0x3f87f2bd	1.0620953
160	0x3faf9fad	1.3720604
161	0x3eea3806	0.45745867
162	0x3c8cee10	0.01720336
163	0x3e18bc73	0.14915638
164	0xbe2f42d2	-0.17115334
165	0x3ea58b1a	0.3233269
166	0x3f38c140	0.72169876
167	0xbdd33ff7	-0.10314935
168	0x3ebe00dc	0.3711003
169	0x3f0277da	0.5096413
170	0xbd06c3eb	-0.032901686
171	0x3e51f815	0.20504792
172	0x3f0860d4	0.5327275
173	0xbcb16bb4	-0.021657802
174	0x3f1b7952	0.60731995
175	0x3fa6d1fe	1.3032835
176	0x3e828155	0.25489298
177	0x3f031cf6	0.51216066
178	0x3f5585fa	0.83407557
179	0x3e506906	0.20352563
180	0xbd89e779	-0.06733603
181	0x3d8c75a6	0.06858377
182	0xbe8007a9	-0.25005844
183	0x3dfe25fe	0.1240959
184	0x3ef25822	0.47332865
185	0xbe85576c	-0.2604326
186	0x3e8a03a1	0.26955894
187	0x3e9e4215	0.30909792
188	0x3d15d04b	0.036575597
189	0xbd888da1	-0.066676386
190	0x3cf0ecfb	0.029409876
191	0x3d3c9f76	0.04605051
192	0xbe25c1ab	-0.1618716
193	0xbe3caea2	-0.18425992
194	0xbe46d6fd	-0.19417949
195	0x3d4cbe18	0.049985975
196	0xbdbdff09	-0.0927716
197	0xbe457d51	-0.19286086
198	0x3be11171	0.0068685343
199	0xbe54232f	-0.20716546
200	0x3d87dfdf	0.06634497
201	0xbc435f8c	-0.011924636
202	0x3c292430	0.010323569
203	0xbc96543d	-0.018350715
204	0xbd9fc458	-0.078011215
205	0x3c32c578	0.010911338
206	0xbd002508	-0.031285316
207	0xbe1a0203	-0.1503983
208	0xbe75c5af	-0.24001192
209	0x3d151ac7	0.03640249
210	0x3db5efbc	0.08883616
211	0xbdc3552f	-0.09537732
212	0x3d9260fa	0.07147403
213	0xbe5773b2	-0.21040228
214	0xbe698642	-0.22805122
215	0x3de0d43e	0.10977982
216	0x3bc52527	0.006016392
217	0x3d62f98d	0.05541377
218	0x3e06a556	0.13149008
219	0x3f45e0ad	0.77295953
220	0x3f6e88d6	0.93177545
221	0x3f0e0cca	0.55488265
222	0x3f098d17	0.5373091
223	0x3f4428b1	0.7662459
224	0x3f25389a	0.6453949
225	0xbe17ae98	-0.14812696
226	0xbe20118d	-0.15631695
227	0xbdb6ca66	-0.08925323
228	0x3f1db820	0.6160908
229	0x3f18c7d0	0.5967989
230	0x3ee26a52	0.4422174
231	0x3ec348df	0.38141534
232	0x3f0b838e	0.5449761
233	0x3ef608a6	0.48053473
234	0xbd20202f	-0.039093193
235	0xbe5cc06b	-0.21557777
236	0x3cbc904d	0.023018027
237	0x3f282630	0.6568327
238	0x3ed29eb3	0.41136703
239	0x3eeef9d0	0.46674967
240	0x3ec4263a	0.38310415
241	0x3ef8a06f	0.485599
242	0x3edcc002	0.4311524
243	0x3f2850c4	0.6574824
244	0xbd70d670	-0.058798254
245	0xbf069c49	-0.5258222
246	0x3f8d02f3	1.1016525
247	0xbf5caffa	-0.8620602
248	0xbfcada64	-1.5847898
249	0x3efbf09b	0.49207005
250	0xbf5fc63c	-0.87411857
251	0xbf93ed8f	-1.1556872
252	0x3f07fbf9	0.53118855
253	0xbdab2b50	-0.083578706
254	0xbf4d8fbd	-0.8029745
255	0x3f6dc535	0.9287904

decoder.2.bias f4 [3]
0	0xbe3d347a	-0.1847705
1	0x3d5a1b8b	0.053248923
2	0xbf12d73f	-0.5735969
